Models/Representation/netG.pt (torch_old, 335017 bytes, 153 tensors)

exp_avg_sq f4 [32]
0	0x2b8f5dc0	1.0186782e-12
1	0x2de89174	2.643994e-11
2	0x303f2a6c	6.954568e-10
3	0x2c9c869a	4.4487304e-12
4	0x2d6e0ff1	1.3532273e-11
5	0x2da90b3e	1.9218068e-11
6	0x2c39e32b	2.6416185e-12
7	0x2d6a2d4c	1.3311418e-11
8	0x2c550a7b	3.0274938e-12
9	0x2dc5e16e	2.2496418e-11
10	0x2bd45bd7	1.5088997e-12
11	0x2b8ff15a	1.022775e-12
12	0x2bd24fb4	1.494352e-12
13	0x2a4aca99	1.8011494e-13
14	0x2ddf6406	2.5396584e-11
15	0x2c287bca	2.3942953e-12
16	0x2ddc755f	2.5063228e-11
17	0x2e1f8810	3.6273262e-11
18	0x320e3b00	8.278903e-09
19	0x2d0b0e77	7.904447e-12
20	0x2e928678	6.663198e-11
21	0x2d9d0f81	1.7855719e-11
22	0x2d883ba5	1.5487897e-11
23	0x2cc5dd05	5.623615e-12
24	0x2c54f169	3.0261022e-12
25	0x2cb059a6	5.012174e-12
26	0x2b0cf354	5.0075677e-13
27	0x2d049f3f	7.538691e-12
28	0x2c4b22c1	2.8867327e-12
29	0x2e1eb0a4	3.608193e-11
30	0x2ede31bc	1.0104226e-10
31	0x2e0f9940	3.265055e-11

exp_avg f4 [32]
0	0x3136b848	2.6589237e-09
1	0x3464a96b	2.1295789e-07
2	0xb4b6cf36	-3.4050908e-07
3	0xb1e345d7	-6.6145094e-09
4	0x352d902b	6.4657314e-07
5	0xb4411cbe	-1.7984982e-07
6	0x34a83558	3.133125e-07
7	0x33bed88b	8.8869534e-08
8	0x33430285	4.5404267e-08
9	0xb4c91aa6	-3.7458557e-07
10	0x33c48958	9.151944e-08
11	0xb2ab85f2	-1.9967931e-08
12	0xb3847d54	-6.169526e-08
13	0x329aa14c	1.8001309e-08
14	0xb3d437f5	-9.882198e-08
15	0xb49c6083	-2.9127486e-07
16	0x3321dd81	3.768719e-08
17	0xb4b166cd	-3.3043617e-07
18	0x34fb908a	4.685756e-07
19	0xb5023789	-4.850959e-07
20	0xb5c02c7f	-1.4318065e-06
21	0xb4186b27	-1.4195085e-07
22	0x350304e7	4.8808437e-07
23	0xb3f099d9	-1.12038556e-07
24	0xb3161f7c	-3.495323e-08
25	0xb439454e	-1.725468e-07
26	0xb146e375	-2.8942087e-09
27	0xb4800721	-2.3847045e-07
28	0xb2b8fcf5	-2.153545e-08
29	0xb4f1578b	-4.4953444e-07
30	0xb5dabed0	-1.62978e-06
31	0xb53e1ec6	-7.0825297e-07

exp_avg_sq f4 [32]
0	0x2fe2bbf6	4.1242715e-10
1	0x3043122c	7.096641e-10
2	0x32360da0	1.0596892e-08
3	0x30924402	1.0642227e-09
4	0x31e0bc6a	6.540678e-09
5	0x31d5174c	6.2017644e-09
6	0x30426243	7.0716427e-10
7	0x314827b1	2.9126392e-09
8	0x3024db14	5.997418e-10
9	0x313756c6	2.667933e-09
10	0x307497cf	8.8982416e-10
11	0x3090ce4c	1.0536012e-09
12	0x3060ed75	8.182817e-10
13	0x2fa87459	3.0641692e-10
14	0x32c5e286	2.303683e-08
15	0x2f229340	1.4786128e-10
16	0x2f46e31e	1.8088683e-10
17	0x3133bcd6	2.615527e-09
18	0x2f969c4f	2.7395905e-10
19	0x2fd1579e	3.8079134e-10
20	0x2f9aea1a	2.8178776e-10
21	0x31f73d6a	7.195628e-09
22	0x31b843ea	5.3628257e-09
23	0x315e908a	3.2387413e-09
24	0x3090f2bb	1.0546367e-09
25	0x3223d01d	9.535168e-09
26	0x3029f559	6.18305e-10
27	0x2f85c85b	2.433492e-10
28	0x30561414	7.788128e-10
29	0x314a17d5	2.9408416e-09
30	0x2fcad256	3.689304e-10
31	0x2f34a5cd	1.6429809e-10

exp_avg f4 [32]
0	0xb6829d75	-3.8926323e-06
1	0xb5e57187	-1.709487e-06
2	0xb6c56618	-5.882943e-06
3	0x361414c2	2.2065801e-06
4	0x350df02b	5.2876084e-07
5	0xb6b1ddb1	-5.3008193e-06
6	0x34f8373f	4.6233797e-07
7	0xb5e673f0	-1.7170078e-06
8	0xb5a5b726	-1.2346761e-06
9	0xb5ed6d4a	-1.7689683e-06
10	0x35b5e1c5	1.3551258e-06
11	0x347926f0	2.3204097e-07
12	0xb58add03	-1.0346124e-06
13	0x358d8e4b	1.0546731e-06
14	0xb653da71	-3.15686e-06
15	0x34eae1d7	4.3750217e-07
16	0x34d82c72	4.0265473e-07
17	0xb677b39d	-3.6910417e-06
18	0x35643c98	8.5024794e-07
19	0xb5bfd1f2	-1.4291711e-06
20	0xb6043409	-1.9699821e-06
21	0xb4a15f14	-3.0057765e-07
22	0x34ee90a0	4.4436183e-07
23	0xb55c6ba3	-8.211302e-07
24	0xb618fd4d	-2.2797205e-06
25	0x352ac508	6.3616653e-07
26	0x36165a33	2.2404245e-06
27	0x35c9309c	1.4989814e-06
28	0x35a5964c	1.23372e-06
29	0xb68fddac	-4.287538e-06
30	0x35faf55e	1.8697863e-06
31	0xb4168e2f	-1.4021565e-07

exp_avg_sq f4 [3]
0	0x3a33cdde	0.00068589847
1	0x39017502	0.00012345987
2	0x390c3710	0.00013371953

exp_avg f4 [3]
0	0xbb81badf	-0.0039590443
1	0x3ae3146c	0.0017324812
2	0xbab3e415	-0.001372459

exp_avg_sq f4 [64]
0	0x2afda1d1	4.505411e-13
1	0x2c18c551	2.1710032e-12
2	0x29221b35	3.5994824e-14
3	0x2b0092d9	4.5678527e-13
4	0x2a053313	1.1830493e-13
5	0x29947da8	6.594318e-14
6	0x2a2582f0	1.4700372e-13
7	0x2c832490	3.727303e-12
8	0x2c37b07c	2.6103833e-12
9	0x2a268f7f	1.4793547e-13
10	0x2d755f87	1.3947849e-11
11	0x2aab6446	3.044528e-13
12	0x2a1b45f3	1.3791034e-13
13	0x2965d1c5	5.103016e-14
14	0x2a2f6213	1.5577149e-13
15	0x2b86a81f	9.567936e-13
16	0x2b01fb9e	4.6179195e-13
17	0x29f1209a	1.07082054e-13
18	0x2943c4be	4.3469345e-14
19	0x28b2e163	1.9859716e-14
20	0x2b1da035	5.5999937e-13
21	0x2995c0c6	6.65037e-14
22	0x28fb8bb6	2.7927188e-14
23	0x2aa05619	2.8481452e-13
24	0x2aae447a	3.0956124e-13
25	0x2ae47ef0	4.0589017e-13
26	0x299c4783	6.940197e-14
27	0x2b90bd1c	1.0284304e-12
28	0x292dd226	3.859599e-14
29	0x29b568e1	8.056208e-14
30	0x2a92285a	2.596281e-13
31	0x299057e7	6.410133e-14
32	0x2a41ec82	1.7223899e-13
33	0x2999a161	6.82256e-14
34	0x29c0376b	8.536126e-14
35	0x29e6d8c3	1.0251654e-13
36	0x2a98b9ee	2.7129639e-13
37	0x29b9f2dd	8.2577804e-14
38	0x29b740cc	8.138073e-14
39	0x2aa92425	3.004551e-13
40	0x2a97c96a	2.6962747e-13
41	0x2a750a6c	2.1763987e-13
42	0x291915c5	3.3991707e-14
43	0x2992dc1c	6.5218854e-14
44	0x29d5d525	9.496075e-14
45	0x2a54e95d	1.8910347e-13
46	0x28c30fbb	2.1656171e-14
47	0x2a83d4db	2.3417973e-13
48	0x2ad41fe5	3.7680896e-13
49	0x2afe3783	4.5157983e-13
50	0x29fcbcc9	1.1223797e-13
51	0x2a00c221	1.1436036e-13
52	0x2a42f2f4	1.7314953e-13
53	0x28e27442	2.5141459e-14
54	0x29c3ef0a	8.701206e-14
55	0x2b0be4d4	4.9700283e-13
56	0x2aa08b27	2.8518266e-13
57	0x2a990140	2.7179127e-13
58	0x2c0edb3c	2.0301113e-12
59	0x28fe6945	2.8245318e-14
60	0x2b592bd8	7.715473e-13
61	0x2927002a	3.708159e-14
62	0x2989e7a0	6.124203e-14
63	0x2a54e63f	1.8909265e-13

exp_avg f4 [64]
0	0xb1b00076	-5.1223266e-09
1	0x32a39ee1	1.9047947e-08
2	0xaf98fd08	-2.7828428e-10
3	0xb125eed0	-2.414641e-09
4	0xb061b40e	-8.2110396e-10
5	0xb0774c9b	-8.996694e-10
6	0xb1a4579d	-4.7829887e-09
7	0x30e5149e	1.6667803e-09
8	0xb003c39b	-4.7935494e-10
9	0x2f9dd343	2.8708244e-10
10	0xae803bef	-5.8314124e-11
11	0xb19049ad	-4.1993276e-09
12	0x3219807e	8.934988e-09
13	0xaf604401	-2.0396841e-10
14	0x31855d21	3.881397e-09
15	0x32a1fd62	1.8858092e-08
16	0xb16340bf	-3.3069651e-09
17	0x2edac157	9.947836e-11
18	0x2f5a6207	1.9861811e-10
19	0xaf43634b	-1.7770423e-10
20	0x31c24121	5.6535474e-09
21	0x31053a1f	1.9387085e-09
22	0x301ee54f	5.780593e-10
23	0xb05e3d50	-8.085026e-10
24	0xb0bcb15e	-1.3729211e-09
25	0x331f06ce	3.702626e-08
26	0x31ffa438	7.4401463e-09
27	0x32495b6d	1.1720528e-08
28	0x2f1b672c	1.4133822e-10
29	0xb00a68e1	-5.035315e-10
30	0x326ac976	1.36664e-08
31	0x2ddd80ab	2.5181931e-11
32	0x30298237	6.166689e-10
33	0x3111157b	2.1112487e-09
34	0xb18b331f	-4.0512442e-09
35	0xb130d688	-2.5733318e-09
36	0xadc7d8af	-2.2719908e-11
37	0x31378a31	2.6708558e-09
38	0x2fe74bc8	4.20725e-10
39	0x326e224c	1.38612215e-08
40	0x3079d083	9.0881985e-10
41	0x31265d81	2.420933e-09
42	0x2fb1d10d	3.2344652e-10
43	0x3099a9dd	1.1180493e-09
44	0x31d02c39	6.0586243e-09
45	0x3233c6a9	1.0464341e-08
46	0xaf40a8e9	-1.7522307e-10
47	0xae71f706	-5.5016457e-11
48	0xb1c3ac76	-5.6948535e-09
49	0x30b2c3a0	1.3006805e-09
50	0x3214c320	8.6591e-09
51	0x31722993	3.5239267e-09
52	0x2e2be51f	3.90844e-11
53	0xacc4d5f4	-5.5944086e-12
54	0x30dea72b	1.6200138e-09
55	0x32dce05f	2.5713403e-08
56	0x321a1e7c	8.970911e-09
57	0x32318ec9	1.0335222e-08
58	0x32963c29	1.7489656e-08
59	0x31281a33	2.446211e-09
60	0x319a6813	4.4938218e-09
61	0x308f188b	1.0411595e-09
62	0x3092c4f1	1.0678872e-09
63	0x32252926	9.61362e-09

exp_avg_sq f4 [32]
0	0x2e0418b7	3.0035276e-11
1	0x301b8a36	5.658508e-10
2	0x2ff258a5	4.408253e-10
3	0x2fb57c60	3.3012082e-10
4	0x2e969fdc	6.849607e-11
5	0x2fd59713	3.885182e-10
6	0x2ff67fbb	4.4837897e-10
7	0x311183c3	2.1175175e-09
8	0x2e71b406	5.495695e-11
9	0x2e52dd35	4.7944943e-11
10	0x2f2836e9	1.5299019e-10
11	0x2f334304	1.6303764e-10
12	0x2ecd6197	9.339656e-11
13	0x2e059985	3.037705e-11
14	0x2ea1fc2d	7.366228e-11
15	0x2e6736dd	5.2572047e-11
16	0x2c5f6d64	3.175093e-12
17	0x2fd84064	3.9335923e-10
18	0x2d57adf9	1.2259965e-11
19	0x2e2a3131	3.8697216e-11
20	0x2e95d7dd	6.8140805e-11
21	0x2ea2491d	7.3798946e-11
22	0x2f1dd4f6	1.4354726e-10
23	0x2f882c74	2.4769842e-10
24	0x2f9cba51	2.850862e-10
25	0x2e93007a	6.684871e-11
26	0x2e877d0a	6.1613006e-11
27	0x2c9dc262	4.483789e-12
28	0x2e140b01	3.3661077e-11
29	0x2f85df9a	2.4351438e-10
30	0x2f029e2d	1.1879626e-10
31	0x2e448249	4.4680957e-11

exp_avg f4 [32]
0	0x356bcf99	8.7846416e-07
1	0xb6e49c7c	-6.8131467e-06
2	0x3516fba4	5.624554e-07
3	0xb643cdd5	-2.9177074e-06
4	0xb4a64275	-3.0968263e-07
5	0x3561f95f	8.4181914e-07
6	0xb61f5e7f	-2.374785e-06
7	0x36c9555b	6.0002035e-06
8	0xb67d17c8	-3.771378e-06
9	0xb34807c9	-4.657321e-08
10	0x35a7027b	1.2443192e-06
11	0x3526694d	6.199305e-07
12	0xb5792339	-9.2810984e-07
13	0x34b08e11	3.2885922e-07
14	0x343ed0f0	1.777114e-07
15	0x34a55815	3.0797733e-07
16	0x33428e31	4.5298467e-08
17	0x34d439ae	3.9530045e-07
18	0xb4fab26f	-4.6695956e-07
19	0xb5dc74d1	-1.6425275e-06
20	0xb47a5542	-2.3314081e-07
21	0x34178cc4	1.4114181e-07
22	0xb4a1397f	-3.003042e-07
23	0x3646b65c	2.9610446e-06
24	0xb52f85c9	-6.5387263e-07
25	0xb61ab26c	-2.3051643e-06
26	0x34e85f72	4.3282813e-07
27	0xb51ebcae	-5.913415e-07
28	0x351d1a43	5.8525274e-07
29	0x354db146	7.662642e-07
30	0x35698c07	8.700303e-07
31	0x33606d61	5.2253544e-08

exp_avg_sq f4 [3, 64, 3, 3]
0	0x2eaf008e	7.958177e-11
1	0x2eb2f68b	8.138298e-11
2	0x2eafb2ed	7.989862e-11
3	0x2eb1b228	8.080675e-11
4	0x2eb7aa44	8.352122e-11
5	0x2eb43266	8.194405e-11
6	0x2eaf456c	7.9704104e-11
7	0x2eb554c0	8.245982e-11
8	0x2eb37147	8.1601e-11
9	0x2cedfd61	6.764076e-12
10	0x2cfa8af8	7.120856e-12
11	0x2cef7a91	6.806396e-12
12	0x2cfcc710	7.184371e-12
13	0x2d070bf3	7.676515e-12
14	0x2cfe6d64	7.231259e-12
15	0x2cf32ee7	6.9116826e-12
16	0x2d009514	7.30906e-12
17	0x2cf3d7b4	6.9304232e-12
18	0x2e8ad5a9	6.313467e-11
19	0x2e910862	6.595326e-11
20	0x2e8108fe	5.867838e-11
21	0x2e92dc42	6.678437e-11
22	0x2e9a74d6	7.0238634e-11
23	0x2e894d4c	6.2437694e-11
24	0x2e85a0fb	6.0767356e-11
25	0x2e8d5c0d	6.428289e-11
26	0x2e7b9e67	5.7211482e-11
27	0x2c69ffbf	3.325326e-12
28	0x2c69d8d4	3.3231655e-12
29	0x2c679ff9	3.2915877e-12
30	0x2c6c6a96	3.3596784e-12
31	0x2c6c16f6	3.3550363e-12
32	0x2c69891a	3.3187398e-12
33	0x2c6b8223	3.346775e-12
34	0x2c6b5f8a	3.3448543e-12
35	0x2c68a3e8	3.306017e-12
36	0x2d7876e1	1.4123564e-11
37	0x2d79678d	1.4177004e-11
38	0x2d7684d3	1.4012974e-11
39	0x2d7da365	1.4417666e-11
40	0x2d804d32	1.4586197e-11
41	0x2d7c8422	1.4353881e-11
42	0x2d7db3aa	1.4421278e-11
43	0x2d811406	1.4674494e-11
44	0x2d7f8d17	1.45264e-11
45	0x2ff72599	4.4955753e-10
46	0x2ff4ae40	4.4507154e-10
47	0x2ffb4d75	4.571167e-10
48	0x2ff63866	4.4787213e-10
49	0x2ff5542c	4.4625048e-10
50	0x2ffc40ed	4.5884666e-10
51	0x2ff8f0f7	4.5282153e-10
52	0x2ff78f53	4.5030876e-10
53	0x2fff6559	4.6456242e-10
54	0x2f5720dc	1.956581e-10
55	0x2f55f339	1.9458647e-10
56	0x2f58e81a	1.9727545e-10
57	0x2f579174	1.9605811e-10
58	0x2f57cec6	1.9627597e-10
59	0x2f5af058	1.9912372e-10
60	0x2f5872eb	1.9685913e-10
61	0x2f586e01	1.9684167e-10
62	0x2f5c52a2	2.003824e-10
63	0x2e83b0a8	5.988571e-11
64	0x2e88373a	6.194374e-11
65	0x2e7c36f4	5.7346974e-11
66	0x2e8c523d	6.3810714e-11
67	0x2e92ea83	6.680969e-11
68	0x2e8728b5	6.14632e-11
69	0x2e868644	6.117465e-11
70	0x2e8e3ec3	6.468561e-11
71	0x2e841dfa	6.00799e-11
72	0x2fff129a	4.6397447e-10
73	0x3002d081	4.7590026e-10
74	0x2ffe773e	4.6287058e-10
75	0x3002a28e	4.752473e-10
76	0x3007bb78	4.9379123e-10
77	0x3003bfcb	4.7930077e-10
78	0x300038ec	4.664702e-10
79	0x3005b1aa	4.8637594e-10
80	0x30032108	4.770446e-10
81	0x2e94446c	6.742415e-11
82	0x2e9e61aa	7.202357e-11
83	0x2e96e7d1	6.862389e-11
84	0x2e9a7f06	7.025673e-11
85	0x2ea83dd0	7.6507356e-11
86	0x2ea050d9	7.290319e-11
87	0x2e9481c0	6.753309e-11
88	0x2ea2951a	7.393393e-11
89	0x2e9cb3f3	7.126024e-11
90	0x3089bdee	1.0022043e-09
91	0x308b8177	1.0150377e-09
92	0x308a5aba	1.0066608e-09
93	0x308be99b	1.0179976e-09
94	0x308f36a4	1.0420149e-09
95	0x308dd264	1.0318897e-09
96	0x308ae188	1.0104921e-09
97	0x308e7a55	1.0366629e-09
98	0x308e2bf4	1.0344352e-09
99	0x2f88498f	2.4790522e-10
100	0x2f9108cd	2.63816e-10
101	0x2f8860d6	2.4807062e-10
102	0x2f8d618f	2.571707e-10
103	0x2f9933ec	2.786743e-10
104	0x2f8f88d9	2.6108785e-10
105	0x2f8843eb	2.4786515e-10
106	0x2f94d3ef	2.707163e-10
107	0x2f8d8b24	2.5746616e-10
108	0x2f65f1b8	2.0913304e-10
109	0x2f7f257a	2.3205429e-10
110	0x2f72401b	2.2032547e-10
111	0x2f6c35f0	2.1483237e-10
112	0x2f869e27	2.4486832e-10
113	0x2f803c51	2.3325922e-10
114	0x2f5fb65e	2.0346522e-10
115	0x2f7f9e97	2.3248457e-10
116	0x2f785e92	2.2589067e-10
117	0x2ff69905	4.4855866e-10
118	0x2ff97740	4.5377568e-10
119	0x2ff71f92	4.495147e-10
120	0x2ffaa55f	4.5592238e-10
121	0x30001b37	4.6604803e-10
122	0x2ffd4c9b	4.6074863e-10
123	0x2ff981a2	4.5384946e-10
124	0x30001150	4.659073e-10
125	0x2ffef701	4.6377838e-10
126	0x2ed3589e	9.610911e-11
127	0x2ecd8a3e	9.3468774e-11
128	0x2ed87e18	9.8449415e-11
129	0x2ecfa00b	9.4416995e-11
130	0x2eca7879	9.207297e-11
131	0x2ed61501	9.7353244e-11
132	0x2ed3900c	9.620757e-11
133	0x2ecdd842	9.360736e-11
134	0x2ed978da	9.889485e-11
135	0x2aee0b5a	4.228517e-13
136	0x2af15945	4.2872143e-13
137	0x2b022e53	4.6249566e-13
138	0x2adf707a	3.9690804e-13
139	0x2ae50f63	4.0689248e-13
140	0x2af8959f	4.415747e-13
141	0x2ae6e7a0	4.101693e-13
142	0x2aebddac	4.1898201e-13
143	0x2b0107a0	4.584059e-13
144	0x2eb368a3	8.158565e-11
145	0x2ec1e8b7	8.817962e-11
146	0x2ead6370	7.884793e-11
147	0x2ec4ad7c	8.943865e-11
148	0x2ed87899	9.843965e-11
149	0x2ec01f8e	8.7367544e-11
150	0x2eb7294d	8.329213e-11
151	0x2ecca281	9.3057125e-11
152	0x2eb736c5	8.3316055e-11
153	0x2fc6ef07	3.618583e-10
154	0x2fc3cb24	3.5614633e-10
155	0x2fca52cd	3.680242e-10
156	0x2fc525b3	3.5860878e-10
157	0x2fc312a6	3.5483544e-10
158	0x2fc9fa36	3.6739473e-10
159	0x2fc886fb	3.6475697e-10
160	0x2fc644fc	3.6065007e-10
161	0x2fcdb0ab	3.7414813e-10
162	0x2d57446b	1.2236527e-11
163	0x2d6345aa	1.2918925e-11
164	0x2d5bbd01	1.2490676e-11
165	0x2d5ce5bb	1.25565626e-11
166	0x2d6c9849	1.3448861e-11
167	0x2d64a6e3	1.2997356e-11
168	0x2d568aec	1.21953385e-11
169	0x2d65f34d	1.30711665e-11
170	0x2d60483a	1.2748963e-11
171	0x2efcb6c7	1.1492101e-10
172	0x2f03c777	1.1985245e-10
173	0x2ef81fab	1.128336e-10
174	0x2f038c1f	1.1964162e-10
175	0x2f0af624	1.2638474e-10
176	0x2f02b29d	1.1886887e-10
177	0x2efb5679	1.1429519e-10
178	0x2f056697	1.2132727e-10
179	0x2efd8563	1.1528802e-10
180	0x304e1dfe	7.4984985e-10
181	0x30532687	7.6816103e-10
182	0x304750a2	7.2510364e-10
183	0x305a1671	7.933983e-10
184	0x3061d68f	8.215943e-10
185	0x3054265c	7.717966e-10
186	0x305379e4	7.693457e-10
187	0x305c74c2	8.0201457e-10
188	0x3050b1c3	7.5922574e-10
189	0x2b6dc02a	8.4465995e-13
190	0x2b6feec2	8.52412e-13
191	0x2b6f07c7	8.492065e-13
192	0x2b6eabf0	8.4793197e-13
193	0x2b715e80	8.5751545e-13
194	0x2b704f06	8.5374795e-13
195	0x2b6e318e	8.4623356e-13
196	0x2b7089ad	8.545619e-13
197	0x2b6f7f4b	8.508651e-13
198	0x30b195e4	1.2921046e-09
199	0x30b18829	1.2917144e-09
200	0x30b3f477	1.3093445e-09
201	0x30b2df82	1.3014729e-09
202	0x30b49474	1.3138917e-09
203	0x30b724f1	1.3325502e-09
204	0x30b309b0	1.3026717e-09
205	0x30b5351c	1.3184578e-09
206	0x30b85f61	1.341487e-09
207	0x2f24c2b9	1.4984892e-10
208	0x2f211349	1.4649716e-10
209	0x2f2790ee	1.5240051e-10
210	0x2f22b31f	1.4797451e-10
211	0x2f1ffa3b	1.4549865e-10
212	0x2f26ad8e	1.5159271e-10
213	0x2f24692b	1.4953076e-10
214	0x2f216347	1.4678135e-10
215	0x2f286322	1.531473e-10
216	0x30a00824	1.1643846e-09
217	0x30a3251a	1.1870356e-09
218	0x30a099d0	1.1685248e-09
219	0x30a35b60	1.1885781e-09
220	0x30a8aaa2	1.2272106e-09
221	0x30a5aef4	1.2055055e-09
222	0x30a131cd	1.1728446e-09
223	0x30a71722	1.2157424e-09
224	0x30a59564	1.2047789e-09
225	0x2bcef7be	1.4705943e-12
226	0x2bd1d031	1.4908128e-12
227	0x2bcee8bb	1.4701776e-12
228	0x2bd2329c	1.4935444e-12
229	0x2bd66b3f	1.5235381e-12
230	0x2bd200dc	1.4921636e-12
231	0x2bcf910b	1.4748492e-12
232	0x2bd2b95a	1.4972843e-12
233	0x2bcf26fb	1.4719054e-12
234	0x2fc8fca4	3.65593e-10
235	0x2fc74d46	3.6252795e-10
236	0x2fcb3fd0	3.6970826e-10
237	0x2fc8f7c4	3.6555836e-10
238	0x2fc89bb3	3.649042e-10
239	0x2fccc14e	3.7244735e-10
240	0x2fca7a2c	3.6830394e-10
241	0x2fc9f4fc	3.673576e-10
242	0x2fceb7fd	3.7601913e-10
243	0x2d3894c0	1.0492218e-11
244	0x2d49bf44	1.1467997e-11
245	0x2cd324f5	6.0010837e-12
246	0x2d83bf39	1.4977896e-11
247	0x2d913d8e	1.6511927e-11
248	0x2d1f8783	9.068193e-12
249	0x2d5f7419	1.2701861e-11
250	0x2d8261a9	1.4822659e-11
251	0x2d0fd489	8.175801e-12
252	0x2e2324c3	3.709456e-11
253	0x2e278ef3	3.8098368e-11
254	0x2e1d7830	3.5804415e-11
255	0x2e2b6247	3.8968186e-11

exp_avg f4 [3, 64, 3, 3]
0	0xb0072469	-4.9164456e-10
1	0xb0074479	-4.921002e-10
2	0xafe88551	-4.229528e-10
3	0xb010be61	-5.265744e-10
4	0xb00c19c0	-5.0968296e-10
5	0xafe9b38c	-4.251003e-10
6	0xb00c7e3e	-5.1111104e-10
7	0xb005683b	-4.853324e-10
8	0xafdbd3e8	-3.9986436e-10
9	0x31b96046	5.3951537e-09
10	0x312130ff	2.3456435e-09
11	0x320992c8	8.007824e-09
12	0x31c79829	5.808961e-09
13	0x31d1b92d	6.1037526e-09
14	0x3269a91c	1.3600836e-08
15	0x31cdea7f	5.9929444e-09
16	0x31c0b715	5.6087495e-09
17	0x326c8fd0	1.3769707e-08
18	0x31de0a5f	6.4622294e-09
19	0x31e4d1f9	6.6595445e-09
20	0x31ed2d86	6.9027832e-09
21	0x31e28c77	6.5934347e-09
22	0x31ec64ee	6.8799784e-09
23	0x31ece3cf	6.894403e-09
24	0x31d30163	6.141066e-09
25	0x31dc391c	6.4093353e-09
26	0x31d426c4	6.174419e-09
27	0xaf7c87da	-2.296753e-10
28	0xaf83b18d	-2.3954919e-10
29	0xaf4d09e0	-1.864815e-10
30	0xaf7e6075	-2.3135434e-10
31	0xaf82afd3	-2.3771793e-10
32	0xaf47994f	-1.8153411e-10
33	0xaf8261dc	-2.3716396e-10
34	0xaf8662e2	-2.4444718e-10
35	0xaf53642e	-1.9225929e-10
36	0x2e941d69	6.735485e-11
37	0x2e6277fc	5.1493018e-11
38	0x2e2b81fb	3.8996344e-11
39	0x2e6a7ccc	5.3316282e-11
40	0x2e4fe045	4.7265542e-11
41	0x2e2d1d48	3.9361653e-11
42	0x2e869fef	6.1220244e-11
43	0x2e6f7dd3	5.4454063e-11
44	0x2e5f0266	5.070646e-11
45	0x31e6b06f	6.713939e-09
46	0x31ee6fb2	6.93941e-09
47	0x320c1f28	8.156157e-09
48	0x31d8097f	6.287507e-09
49	0x31e63e6b	6.700977e-09
50	0x3209383f	7.987238e-09
51	0x31be6948	5.541697e-09
52	0x31cfe31d	6.0503127e-09
53	0x31f4b777	7.122192e-09
54	0xb151ffae	-3.055884e-09
55	0xb1506471	-3.0325078e-09
56	0xb11d983c	-2.2933042e-09
57	0xb15ea41e	-3.2398542e-09
58	0xb159c5c9	-3.1690084e-09
59	0xb125f99b	-2.4152544e-09
60	0xb16a6839	-3.4110725e-09
61	0xb165cf8e	-3.3441867e-09
62	0xb1352b16	-2.6363458e-09
63	0xb2889d5a	-1.5904039e-08
64	0xb289dce1	-1.6049343e-08
65	0xb29e8992	-1.845618e-08
66	0xb2897324	-1.6001259e-08
67	0xb292d58e	-1.709375e-08
68	0xb2ac00f2	-2.0023865e-08
69	0xb2849a1b	-1.5436902e-08
70	0xb28b2013	-1.6196315e-08
71	0xb2a352bf	-1.9013326e-08
72	0xb10631d7	-1.9527897e-09
73	0xb10b3ea0	-2.026276e-09
74	0xb11acf89	-2.252792e-09
75	0xb10863f6	-1.9847426e-09
76	0xb111d6cf	-2.1222382e-09
77	0xb1246827	-2.3924345e-09
78	0xb105a889	-1.9449848e-09
79	0xb10cac39	-2.0470579e-09
80	0xb11d1254	-2.2856925e-09
81	0xb136cddf	-2.660151e-09
82	0xb13ca2b8	-2.7450096e-09
83	0xb1215527	-2.3476987e-09
84	0xb13f3fc4	-2.7830405e-09
85	0xb142865c	-2.830709e-09
86	0xb125fb96	-2.415367e-09
87	0xb142cf94	-2.834871e-09
88	0xb1457e6d	-2.8739138e-09
89	0xb128e355	-2.457644e-09
90	0xb18be50a	-4.071471e-09
91	0xb19996c4	-4.470026e-09
92	0xb1a16c42	-4.698024e-09
93	0xb191b59d	-4.2407025e-09
94	0xb1a07784	-4.6702002e-09
95	0xb1a8ab41	-4.908913e-09
96	0xb18e0abf	-4.1339656e-09
97	0xb199e04c	-4.4783857e-09
98	0xb19dddf8	-4.5945363e-09
99	0x2ff334a0	4.4238835e-10
100	0x2f7af60a	2.2824778e-10
101	0xafaaa99a	-3.104333e-10
102	0x30071b94	4.9151905e-10
103	0x2f609ac7	2.0427669e-10
104	0xafd2e973	-3.8364653e-10
105	0x302f9a49	6.388388e-10
106	0x300bc556	5.0848337e-10
107	0xacdf12d0	-6.34013e-12
108	0xb1f08ed2	-7.001156e-09
109	0xb1fb22bc	-7.3090103e-09
110	0xb1e016d5	-6.5218537e-09
111	0xb1f5cd55	-7.153782e-09
112	0xb1fd774b	-7.376831e-09
113	0xb1dedbff	-6.486061e-09
114	0xb1f51ba6	-7.1335817e-09
115	0xb1fd73d0	-7.3764355e-09
116	0xb1dd10b8	-6.4338472e-09
117	0xb0d2f1a7	-1.5348193e-09
118	0xb0cd108e	-1.4920418e-09
119	0xb0c4d91c	-1.4322583e-09
120	0xb0c97eb3	-1.4660685e-09
121	0xb0c96d93	-1.4655818e-09
122	0xb0c54a6d	-1.435479e-09
123	0xb0babb93	-1.3586593e-09
124	0xb0bb9dc7	-1.3650884e-09
125	0xb0b64a29	-1.326332e-09
126	0xb1397d95	-2.6992428e-09
127	0xb13fc7f7	-2.7907825e-09
128	0xb11b7d68	-2.2626754e-09
129	0xb14456d6	-2.8571114e-09
130	0xb1492c4a	-2.9274525e-09
131	0xb123d303	-2.3839568e-09
132	0xb14afcac	-2.9538496e-09
133	0xb14f35be	-3.0153013e-09
134	0xb12cb3e8	-2.513156e-09
135	0xae9c2b8c	-7.101794e-11
136	0xae98b9d8	-6.945172e-11
137	0xae4621dd	-4.5050064e-11
138	0xae926c12	-6.6585085e-11
139	0xae8a01b2	-6.2758146e-11
140	0xae204b48	-3.644665e-11
141	0xaea0d5c7	-7.313932e-11
142	0xae9e3a2d	-7.195342e-11
143	0xae49e6cd	-4.59071e-11
144	0xb25095af	-1.2141228e-08
145	0xb2475be2	-1.1604216e-08
146	0xb2645868	-1.3291448e-08
147	0xb2576dc6	-1.2539607e-08
148	0xb25ebb16	-1.2964639e-08
149	0xb2812922	-1.5036282e-08
150	0xb24f3799	-1.2061627e-08
151	0xb2542554	-1.23485115e-08
152	0xb27933e9	-1.4505511e-08
153	0x31c45772	5.714292e-09
154	0x31c6528d	5.7719434e-09
155	0x31ded67b	6.485434e-09
156	0x31bb12b3	5.444542e-09
157	0x31c140a5	5.6243885e-09
158	0x31dc90a4	6.4192864e-09
159	0x31a8e1c2	4.915109e-09
160	0x31b1ca42	5.174372e-09
161	0x31c84280	5.8283263e-09
162	0x311d6132	2.2901756e-09
163	0x311fe0c9	2.326532e-09
164	0x31226045	2.3628826e-09
165	0x311b2cef	2.258101e-09
166	0x311ec6b3	2.3104973e-09
167	0x31219a6f	2.3516369e-09
168	0x3113c19d	2.1501372e-09
169	0x31178c07	2.2052988e-09
170	0x3118ac4c	2.221685e-09
171	0x31f6acfa	7.1792075e-09
172	0x3234515f	1.0495881e-08
173	0x31fd7163	7.3761597e-09
174	0x32289299	9.8122195e-09
175	0x324f77b9	1.2076208e-08
176	0x320115fd	7.513788e-09
177	0x3224a59f	9.583714e-09
178	0x32489182	1.1674617e-08
179	0x31ddb388	6.452357e-09
180	0xb2ee32a3	-2.7729874e-08
181	0xb2f45ee2	-2.8448486e-08
182	0xb30cfee1	-3.28281e-08
183	0xb2ea3bcc	-2.7268378e-08
184	0xb2fcc7bb	-2.9427488e-08
185	0xb3150cd6	-3.470344e-08
186	0xb2dee02e	-2.5946147e-08
187	0xb2ed9e07	-2.7662294e-08
188	0xb30c8d11	-3.272459e-08
189	0x2ea3acb6	7.4430614e-11
190	0x2e91b5ff	6.6261656e-11
191	0xae2eac0a	-3.971582e-11
192	0x2c153ef4	2.120912e-12
193	0xad0932c6	-7.798822e-12
194	0xaef4787b	-1.1117237e-10
195	0x2e9b43b1	7.0606083e-11
196	0x2e9b3a36	7.058924e-11
197	0xaddf58ce	-2.5391602e-11
198	0x321d762b	9.165471e-09
199	0x3226af6a	9.702356e-09
200	0x324c7423	1.1900769e-08
201	0x3216cbab	8.777458e-09
202	0x32256f6a	9.629597e-09
203	0x324e5942	1.2011073e-08
204	0x3207f1a8	7.9129805e-09
205	0x32161876	8.736711e-09
206	0x3239bc0b	1.0811173e-08
207	0x3168903e	3.3842436e-09
208	0x317138ac	3.510233e-09
209	0x3194f52f	4.335241e-09
210	0x3154d084	3.0968588e-09
211	0x31652d32	3.3349576e-09
212	0x3190dd8d	4.216139e-09
213	0x313583e8	2.6413947e-09
214	0x31496e0d	2.9311906e-09
215	0x317cc341	3.6781815e-09
216	0xb1c98cee	-5.8658918e-09
217	0xb1d300d7	-6.1410037e-09
218	0xb1f07f83	-6.9994157e-09
219	0xb1c9b55e	-5.870489e-09
220	0xb1d78832	-6.272807e-09
221	0xb1f746b7	-7.1966855e-09
222	0xb1c1e92f	-5.643549e-09
223	0xb1ccfbb8	-5.9657985e-09
224	0xb1e87d5a	-6.7663395e-09
225	0xb27c131f	-1.4672678e-08
226	0xb28ece4a	-1.6624785e-08
227	0xb2812e3b	-1.50386e-08
228	0xb287cb2b	-1.5808459e-08
229	0xb29303ad	-1.7114724e-08
230	0xb27b340a	-1.4621955e-08
231	0xb285601a	-1.552694e-08
232	0xb28f4317	-1.66779e-08
233	0xb26ba80d	-1.3717011e-08
234	0xb03f4e3b	-6.959657e-10
235	0xb025b656	-6.0285765e-10
236	0x2f4493dd	1.7878628e-10
237	0xb077bd8d	-9.0127444e-10
238	0xb04e410d	-7.5034806e-10
239	0x2e8276fa	5.93285e-11
240	0xb09f8139	-1.16055e-09
241	0xb089e07f	-1.0031868e-09
242	0xaf96fdce	-2.746518e-10
243	0xb2990991	-1.7815895e-08
244	0xb299bbf2	-1.7897012e-08
245	0xb2a79527	-1.9509185e-08
246	0xb29d789e	-1.8332056e-08
247	0xb2a543b5	-1.9239318e-08
248	0xb2b5414d	-2.1100869e-08
249	0xb29a09ec	-1.7932472e-08
250	0xb29f03a1	-1.8511686e-08
251	0xb2ae25bc	-2.0273426e-08
252	0xae002217	-2.913411e-11
253	0xae0438d9	-3.0063816e-11
254	0xadd96410	-2.471448e-11
255	0xadc1f012	-2.2048172e-11

exp_avg_sq f4 [3]
0	0x1a9b8f1d	6.433771e-23
1	0x1ac3c086	8.096115e-23
2	0x1b10c2c7	1.1974337e-22

exp_avg f4 [3]
0	0x2a07f491	1.207526e-13
1	0x2ad60730	3.8019024e-13
2	0xa9f04868	-1.06707015e-13

exp_avg_sq f4 [64]
0	0x2cc8a992	5.703168e-12
1	0x2d8fc9fc	1.6346917e-11
2	0x29f7d28c	1.10055275e-13
3	0x2cb66fd0	5.185165e-12
4	0x2a55ff5f	1.90068e-13
5	0x2add3456	3.9293802e-13
6	0x2a678484	2.0562897e-13
7	0x2cc0e95b	5.482876e-12
8	0x2cd835ce	6.1450628e-12
9	0x2ae0ef44	3.9956417e-13
10	0x2da15a3f	1.8343658e-11
11	0x2ba8e97c	1.2001923e-12
12	0x2b88f8f2	9.732477e-13
13	0x2b1e011b	5.613441e-13
14	0x2c844f1c	3.7604485e-12
15	0x2cd0abb3	5.930778e-12
16	0x2ca2092e	4.605336e-12
17	0x2bd3dd66	1.5053902e-12
18	0x29d3b692	9.401953e-14
19	0x2a385140	1.6370672e-13
20	0x2b299294	6.024428e-13
21	0x2c2a51ce	2.4203864e-12
22	0x2a24b7e7	1.462993e-13
23	0x2ad001ba	3.694942e-13
24	0x2c2c8352	2.4515568e-12
25	0x2cb5875e	5.159358e-12
26	0x2b29f693	6.038305e-13
27	0x2b86a219	9.566264e-13
28	0x298ef606	6.348745e-14
29	0x2b133ef1	5.231224e-13
30	0x2c8c2a76	3.9837534e-12
31	0x2b993af8	1.0887671e-12
32	0x2a5ca9de	1.959886e-13
33	0x2c1396b1	2.0973607e-12
34	0x2b48f9fa	7.1401186e-13
35	0x2b639f50	8.086769e-13
36	0x2b34e998	6.427302e-13
37	0x2b529d6b	7.482545e-13
38	0x2bdafc04	1.555978e-12
39	0x2c109bbc	2.055008e-12
40	0x2b5df7b5	7.8858735e-13
41	0x2bdc0aab	1.5634901e-12
42	0x2af1ce43	4.2953323e-13
43	0x2b877d09	9.627031e-13
44	0x2ba45fac	1.1679455e-12
45	0x2c15de51	2.1297584e-12
46	0x2a185704	1.3530502e-13
47	0x2c746162	3.4728544e-12
48	0x2a9cdcb4	2.786431e-13
49	0x2a99ed50	2.7342928e-13
50	0x2c437176	2.777415e-12
51	0x2b8f30d1	1.017431e-12
52	0x2b9be68f	1.1077405e-12
53	0x29a47f85	7.305184e-14
54	0x2bbda24b	1.3474303e-12
55	0x2c32a002	2.5384144e-12
56	0x2c18b3c1	2.1700283e-12
57	0x2cb74050	5.208313e-12
58	0x2d951170	1.6947083e-11
59	0x2b0ae595	4.934606e-13
60	0x2b279cb9	5.9547815e-13
61	0x2a9a26ba	2.7382767e-13
62	0x2a8efd50	2.5400038e-13
63	0x2bbb7cfe	1.3321841e-12

exp_avg f4 [64]
0	0xb3a2263e	-7.550669e-08
1	0xb09d1b66	-1.1431041e-09
2	0xafc04802	-3.497576e-10
3	0xb38f16d4	-6.663109e-08
4	0xb09df325	-1.1492359e-09
5	0x33007a8a	2.991377e-08
6	0xb1ddf321	-6.459587e-09
7	0xafe2ba24	-4.1241421e-10
8	0x317f4e99	3.7152061e-09
9	0xb2091d8e	-7.9811695e-09
10	0x31bf2bac	5.5637965e-09
11	0xb304783e	-3.0843005e-08
12	0xb2042475	-7.691701e-09
13	0x31e992f1	6.797898e-09
14	0xb23aa39b	-1.08638245e-08
15	0x3301e1ba	3.024045e-08
16	0xb38fb423	-6.691723e-08
17	0x32db5e30	2.5537787e-08
18	0x30f6f761	1.7969165e-09
19	0xafe98d0f	-4.248268e-10
20	0x333e234c	4.4269925e-08
21	0x323f1a0c	1.1123586e-08
22	0xb1fa7f83	-7.290454e-09
23	0xb20e3898	-8.278356e-09
24	0x30dbdfbb	1.5997935e-09
25	0xb3743451	-5.685826e-08
26	0x3209a0d2	8.011016e-09
27	0x31a93796	4.9248667e-09
28	0x300e81f6	5.1843985e-10
29	0xafddd271	-4.0349193e-10
30	0x32f5f8c2	2.8634876e-08
31	0xb29126d8	-1.6897886e-08
32	0x2f9c7021	2.8455907e-10
33	0x32894698	1.5981001e-08
34	0xb22c6699	-1.0035046e-08
35	0xb19b167c	-4.51365e-09
36	0x3112e44c	2.1375568e-09
37	0x30937ec4	1.0731687e-09
38	0xb23ec2d8	-1.1103758e-08
39	0x3214dfde	8.665635e-09
40	0xb1c8126a	-5.8228595e-09
41	0xb252d1cd	-1.2271312e-08
42	0xb0a7533b	-1.2174505e-09
43	0xb1c93df7	-5.8569145e-09
44	0x31444ae4	2.8564324e-09
45	0x32cc8983	2.3811259e-08
46	0xb0332823	-6.517686e-10
47	0x32be7ea2	2.2176497e-08
48	0xb15fa739	-3.2545826e-09
49	0xb086eb65	-9.816686e-10
50	0x32f91633	2.899751e-08
51	0x3172c0e8	3.532529e-09
52	0xb2bd49f3	-2.2036124e-08
53	0xb1210d35	-2.343609e-09
54	0x318e11e0	4.134776e-09
55	0x32461089	1.15288765e-08
56	0x3253ede5	1.2335907e-08
57	0x32a8fb0d	1.9671939e-08
58	0xb3a83822	-7.83332e-08
59	0xaed90793	-9.869363e-11
60	0x31080a03	1.9796296e-09
61	0x329538b2	1.7371665e-08
62	0xb0fc0b82	-1.8338684e-09
63	0x312402d7	2.3866755e-09

exp_avg_sq f4 [16]
0	0x2f2fb962	1.5982018e-10
1	0x2c8e6eb4	4.0481733e-12
2	0x3103d909	1.918638e-09
3	0x2c9405df	4.207065e-12
4	0x2c18a349	2.169114e-12
5	0x2d1e95c8	9.014518e-12
6	0x308c7685	1.0220026e-09
7	0x2e5f1925	5.0726662e-11
8	0x2d974764	1.7198416e-11
9	0x2d0f28a2	8.137631e-12
10	0x2ce30d93	6.453235e-12
11	0x2c9a759d	4.390001e-12
12	0x2daf80ec	1.995245e-11
13	0x329c26e6	1.817848e-08
14	0x2d21bea5	9.194122e-12
15	0x2b7d400c	8.997254e-13

exp_avg f4 [16]
0	0x3619102e	2.2808194e-06
1	0x342d533b	1.614216e-07
2	0xb5212245	-6.002704e-07
3	0x34840a88	2.4594578e-07
4	0xb39a082c	-7.17267e-08
5	0x34a2426d	3.0223183e-07
6	0xb5c99da8	-1.5021551e-06
7	0xb4382e6a	-1.715322e-07
8	0xb46cd1cd	-2.2055538e-07
9	0x340c5f12	1.3073102e-07
10	0xb41d9af7	-1.467814e-07
11	0x340ee03e	1.330636e-07
12	0x339c91c1	7.2908286e-08
13	0xb7ec526b	-2.8171771e-05
14	0xb3db4dde	-1.0212146e-07
15	0xb3617d04	-5.2500596e-08

exp_avg_sq f4 [64]
0	0x2cce83cf	5.869506e-12
1	0x2e19d603	3.4978253e-11
2	0x2ca44ccf	4.669688e-12
3	0x2afe799f	4.5203855e-13
4	0x2b6cfb9c	8.419322e-13
5	0x2fe304e4	4.1294534e-10
6	0x2fcc446c	3.7156e-10
7	0x2ddf1e74	2.5365689e-11
8	0x2e44be57	4.4734296e-11
9	0x2dc8d1f4	2.2830605e-11
10	0x2fb3a3dd	3.2676342e-10
11	0x2e861002	6.096458e-11
12	0x2e31ca8f	4.042505e-11
13	0x2ea63950	7.558987e-11
14	0x2ebbef7f	8.5463185e-11
15	0x2c237b3b	2.32321e-12
16	0x30a965c0	1.2325287e-09
17	0x2f71c543	2.1988904e-10
18	0x2e0b43e4	3.166524e-11
19	0x2d3c0f91	1.0690019e-11
20	0x2db35d99	2.039151e-11
21	0x2e4abb2e	4.609573e-11
22	0x2dc2546e	2.209274e-11
23	0x2f915177	2.643323e-10
24	0x2f2ac9d9	1.553312e-10
25	0x2d781e12	1.4103845e-11
26	0x2f30011d	1.6007502e-10
27	0x2d4b9ae5	1.15736075e-11
28	0x2d3d2e1e	1.0753646e-11
29	0x2e55af4d	4.858629e-11
30	0x2e4fb39c	4.7225876e-11
31	0x2fe6b0be	4.196234e-10
32	0x2f1ab7c1	1.4071501e-10
33	0x2c31760c	2.5218742e-12
34	0x2efaecdf	1.14107605e-10
35	0x2cb14b03	5.0389705e-12
36	0x2eda7f5c	9.936116e-11
37	0x2d217837	9.1784835e-12
38	0x2e8677d5	6.114901e-11
39	0x2dd23af2	2.3900413e-11
40	0x29680212	5.1516144e-14
41	0x302f1a44	6.3701955e-10
42	0x2f54d966	1.9358523e-10
43	0x2ffd7a4c	4.610733e-10
44	0x2f4cd1ad	1.8628184e-10
45	0x2ecf8054	9.436066e-11
46	0x2f9dc99c	2.8701386e-10
47	0x2de274e8	2.5745142e-11
48	0x2f8504c1	2.4195937e-10
49	0x2b708ba9	8.5458946e-13
50	0x2b3e5fb7	6.763439e-13
51	0x2d265376	9.45454e-12
52	0x2e30a5f0	4.016515e-11
53	0x2e175b38	3.4414444e-11
54	0x2fff6134	4.6453297e-10
55	0x2b937773	1.0478132e-12
56	0x2e376903	4.1702652e-11
57	0x2ede0ec8	1.0098017e-10
58	0x2ebca93a	8.579311e-11
59	0x2f8f53ab	2.6070998e-10
60	0x2d8f440c	1.6287437e-11
61	0x2fbddf7a	3.453769e-10
62	0x2c74902b	3.4754515e-12
63	0x2c09dba4	1.9590796e-12

exp_avg f4 [64]
0	0x30cdc98e	1.4972998e-09
1	0x33b49de3	8.4106226e-08
2	0x331be65a	3.6298253e-08
3	0x308edb62	1.0394212e-09
4	0xaf3cb29d	-1.7161957e-10
5	0x33370474	4.2612058e-08
6	0x3250605c	1.2129103e-08
7	0xb34c2c57	-4.7537778e-08
8	0xb21a0576	-8.9652215e-09
9	0xb0d1a5c5	-1.5253866e-09
10	0xb1f89511	-7.234697e-09
11	0x32e2fb9a	2.6424278e-08
12	0x30525e68	7.6531714e-10
13	0x31f004f4	6.9854824e-09
14	0xb21dc881	-9.184192e-09
15	0xb1163e5a	-2.1863316e-09
16	0xb39ac3f0	-7.206825e-08
17	0x331f1b15	3.7044703e-08
18	0xb0bd8b39	-1.3791129e-09
19	0xb1637de8	-3.3104417e-09
20	0xb370cd19	-5.606589e-08
21	0xafb6ef3d	-3.3275596e-10
22	0x32cd40ce	2.389461e-08
23	0x33411963	4.4959403e-08
24	0xb2641bae	-1.327764e-08
25	0x32995bbc	1.785326e-08
26	0xb0b26991	-1.2981208e-09
27	0xb34b4c89	-4.733423e-08
28	0x2f8c4c81	2.552021e-10
29	0xb1cc1421	-5.93947e-09
30	0x329b69e3	1.8092527e-08
31	0xb13e07ba	-2.765303e-09
32	0xb1eb50c6	-6.848583e-09
33	0x31d1a862	6.1018435e-09
34	0xb165d2bb	-3.3443672e-09
35	0x2fef8bd7	4.357321e-10
36	0x2ffdc7fc	4.616253e-10
37	0x3102a7bf	1.9012842e-09
38	0xb222a933	-9.4681125e-09
39	0xb151ab90	-3.0511025e-09
40	0xb16f905e	-3.486114e-09
41	0x30cf7005	1.509307e-09
42	0xb191c584	-4.2425103e-09
43	0x31d4f824	6.1982224e-09
44	0xb1a9cfb4	-4.9421605e-09
45	0x32dbb060	2.5575162e-08
46	0xb0c6bebd	-1.4460607e-09
47	0xb1dca5b4	-6.421681e-09
48	0x332cb154	4.020815e-08
49	0x318fa270	4.1803148e-09
50	0x30be9627	1.3866995e-09
51	0xb204e49c	-7.735391e-09
52	0x3245e6cb	1.15193854e-08
53	0x320fb1c6	8.3641165e-09
54	0x3398b26c	7.110506e-08
55	0x31125c82	2.129838e-09
56	0xb1393289	-2.694977e-09
57	0x32d8ed84	2.525372e-08
58	0x33e50d42	1.0666055e-07
59	0xb1b4a08a	-5.2569407e-09
60	0xb2386351	-1.07327915e-08
61	0x331acd75	3.604278e-08
62	0xaf90304a	-2.622776e-10
63	0x30c7b1b7	1.4529665e-09

exp_avg_sq f4 [32]
0	0x2ab9d02e	3.3007055e-13
1	0x2b8d2a7d	1.0030445e-12
2	0x2f458e29	1.7967551e-10
3	0x2bb9604b	1.3171767e-12
4	0x2b984e56	1.0821992e-12
5	0x2b962af5	1.0670064e-12
6	0x2c32e1b1	2.5420605e-12
7	0x2c1850e4	2.1645402e-12
8	0x2ba0bb48	1.1420665e-12
9	0x2c66bee5	3.2790934e-12
10	0x2b568700	7.6215423e-13
11	0x2bade8df	1.2357024e-12
12	0x2acdb4d6	3.6540795e-13
13	0x2b005f1d	4.560673e-13
14	0x2c056dbf	1.8961358e-12
15	0x2bd1bcd3	1.4902752e-12
16	0x2bd42c48	1.5075797e-12
17	0x2c49f598	2.870015e-12
18	0x2fb1dac6	3.235156e-10
19	0x2b5847cb	7.683825e-13
20	0x2cd1a878	5.958841e-12
21	0x2c1530ad	2.1201194e-12
22	0x2bb1cf97	1.2634224e-12
23	0x2bb64005	1.2949647e-12
24	0x2b58c9a7	7.7018464e-13
25	0x2afdfc09	4.5116713e-13
26	0x2a722cc7	2.1509453e-13
27	0x2c191279	2.1752862e-12
28	0x2b14bd4a	5.2842854e-13
29	0x2c5a0dc6	3.098731e-12
30	0x2d6b530d	1.3376644e-11
31	0x2c13dc55	2.1012265e-12

exp_avg f4 [32]
0	0x313ca31c	2.7450318e-09
1	0xb24f9eb5	-1.2085072e-08
2	0xb440f892	-1.7971823e-07
3	0xb209be2e	-8.017691e-09
4	0x334373a8	4.5507164e-08
5	0xb20fb348	-8.364459e-09
6	0xb433fe65	-1.6763222e-07
7	0xb455229a	-1.9849759e-07
8	0xb20355e0	-7.644729e-09
9	0xb3385520	-4.291826e-08
10	0xb14caa1f	-2.978261e-09
11	0xb1698c5a	-3.3985743e-09
12	0xb1c64f86	-5.771599e-09
13	0xb013fc01	-5.383641e-10
14	0xb1f289e2	-7.0588024e-09
15	0x34b6f542	3.407859e-07
16	0x32e67803	2.6830099e-08
17	0xb2171f74	-8.796508e-09
18	0xb513a185	-5.499681e-07
19	0x327d108b	1.47303e-08
20	0x34736b60	2.2670201e-07
21	0xb0f1c1b5	-1.7590113e-09
22	0x33797d20	5.808863e-08
23	0xb332936a	-4.1577927e-08
24	0xb3b1ade9	-8.273839e-08
25	0xb378167a	-5.7762442e-08
26	0x31e6bf3a	6.715621e-09
27	0xb1d822a6	-6.2903664e-09
28	0x3189ecab	4.014131e-09
29	0xb3301dc6	-4.1005272e-08
30	0x33307d76	4.10923e-08
31	0xb3a8284c	-7.8304396e-08

exp_avg_sq f4 [3, 3, 3, 3]
0	0x2b005bd3	4.5602167e-13
1	0x2b1713f0	5.3673645e-13
2	0x2b6701ec	8.2070353e-13
3	0x2a8501dd	2.362684e-13
4	0x2b1ae63c	5.5031305e-13
5	0x2b479110	7.0900317e-13
6	0x2aa88063	2.993188e-13
7	0x2a9f284c	2.8272035e-13
8	0x2b677a40	8.223734e-13
9	0x2ce019d7	6.3693317e-12
10	0x2cd9049f	6.168024e-12
11	0x2cc815c4	5.6867584e-12
12	0x2cd9e73b	6.1931827e-12
13	0x2cddadf8	6.300512e-12
14	0x2cc268e8	5.5254586e-12
15	0x2cf16f74	6.8620058e-12
16	0x2cd8e974	6.1650077e-12
17	0x2ce351d8	6.4608145e-12
18	0x2faff907	3.200926e-10
19	0x2f9fc3d2	2.906107e-10
20	0x2f9c2735	2.8404093e-10
21	0x2faf56c0	3.1893954e-10
22	0x2f9ebee9	2.8875682e-10
23	0x2f9aee95	2.818196e-10
24	0x2fae6979	3.1725358e-10
25	0x2f9e0398	2.8742586e-10
26	0x2f9be1da	2.8354813e-10
27	0x2dd7c269	2.4529006e-11
28	0x2debf213	2.682391e-11
29	0x2dcb8f10	2.314196e-11
30	0x2def0c90	2.7176733e-11
31	0x2e014dd5	2.9400333e-11
32	0x2ddd624e	2.5168447e-11
33	0x2deced0a	2.693536e-11
34	0x2dff6d5e	2.9038712e-11
35	0x2dd8eafa	2.4660708e-11
36	0x2bd1b8c1	1.4901623e-12
37	0x2bf868ce	1.7650549e-12
38	0x2be7b402	1.6463499e-12
39	0x2bec5c65	1.6794453e-12
40	0x2c08c40f	1.9435597e-12
41	0x2bf87d1a	1.7656183e-12
42	0x2c013d04	1.8365873e-12
43	0x2c155c95	2.1225567e-12
44	0x2c02a33c	1.8564724e-12
45	0x2dc2f399	2.2163426e-11
46	0x2dcc6df9	2.3240953e-11
47	0x2db0ba8e	2.009173e-11
48	0x2dd76b59	2.4490342e-11
49	0x2de1d43c	2.567379e-11
50	0x2dc22ed3	2.207604e-11
51	0x2dd45aae	2.414188e-11
52	0x2dde4a9c	2.5271611e-11
53	0x2dbfaf57	2.1792053e-11
54	0x2c8c4c5b	3.9875165e-12
55	0x2ca5c298	4.7111863e-12
56	0x2c2b44ae	2.4338686e-12
57	0x2cb7a671	5.2196515e-12
58	0x2cd1c8ac	5.9624163e-12
59	0x2c67cc31	3.2940423e-12
60	0x2cb525a6	5.1485092e-12
61	0x2ccc94a6	5.814532e-12
62	0x2c5de792	3.1534536e-12
63	0x2b312bc9	6.2943796e-13
64	0x2b87d923	9.652594e-13
65	0x2b5aab13	7.768657e-13
66	0x2b5ba2cb	7.803035e-13
67	0x2ba680e1	1.183078e-12
68	0x2b84ee6f	9.445343e-13
69	0x2b65a585	8.158685e-13
70	0x2bacb6af	1.227204e-12
71	0x2b8ab0f3	9.854603e-13
72	0x2f1d9e47	1.4335298e-10
73	0x2f19fad4	1.4004381e-10
74	0x2f0ec186	1.2983578e-10
75	0x2f22e29e	1.4814325e-10
76	0x2f1f3119	1.4478409e-10
77	0x2f130dc5	1.3374464e-10
78	0x2f2767ea	1.5225479e-10
79	0x2f23be13	1.4892292e-10
80	0x2f17bcea	1.3800486e-10

exp_avg f4 [3, 3, 3, 3]
0	0xb2929f3e	-1.7069052e-08
1	0x3256f30e	1.2511704e-08
2	0x32c92489	2.3416094e-08
3	0xb30c7df9	-3.271086e-08
4	0xb2113836	-8.452892e-09
5	0x317f4104	3.714434e-09
6	0xb2d071e2	-2.4266175e-08
7	0xb1fcc239	-7.356246e-09
8	0xb04b3269	-7.3922607e-10
9	0xb319f155	-3.584258e-08
10	0x32a6ccff	1.9418165e-08
11	0x30e6f21b	1.6803513e-09
12	0xb32b6500	-3.99059e-08
13	0x322ff690	1.02424025e-08
14	0xb203a68d	-7.663073e-09
15	0xb2f5be42	-2.8608273e-08
16	0x3211c822	8.485616e-09
17	0xb2896f99	-1.5999648e-08
18	0xb0986211	-1.1087328e-09
19	0x3255c71a	1.2443502e-08
20	0x32a63106	1.9347237e-08
21	0xb24195da	-1.1268151e-08
22	0xb043ba0d	-7.120498e-10
23	0x3202ff40	7.625033e-09
24	0xb24bb43a	-1.1857134e-08
25	0xb1c8b941	-5.841827e-09
26	0x30930faa	1.070011e-09
27	0x323ee7ba	1.1112144e-08
28	0x327cef06	1.4722678e-08
29	0x3272577a	1.4106144e-08
30	0x3208c310	7.960594e-09
31	0x323991c9	1.0801565e-08
32	0x32301645	1.0249612e-08
33	0x321b0434	9.023143e-09
34	0x32342730	1.0486289e-08
35	0x32212671	9.380174e-09
36	0x31c332ac	5.6810077e-09
37	0x32818758	1.5079124e-08
38	0x32183e4a	8.861727e-09
39	0x31cc941f	5.954021e-09
40	0x326f34fd	1.3923679e-08
41	0x31fac59c	7.298423e-09
42	0x320410af	7.687205e-09
43	0x32548f8a	1.2372661e-08
44	0x31ac3f6b	5.0130686e-09
45	0x31f1adcf	7.033783e-09
46	0x3213f4ab	8.612157e-09
47	0x321e0ee9	9.200201e-09
48	0x3199c45b	4.475209e-09
49	0x31c424bf	5.7085283e-09
50	0x31e2841c	6.592485e-09
51	0x31a20ebb	4.716495e-09
52	0x31b25db3	5.191134e-09
53	0x31cc76cb	5.9506866e-09
54	0x3127a931	2.4397873e-09
55	0x317bc575	3.6637549e-09
56	0x31a80a9f	4.890651e-09
57	0xb04bb55a	-7.4108686e-10
58	0x2f57c899	1.9625403e-10
59	0x30cbd372	1.483029e-09
60	0x308aed49	1.0108262e-09
61	0x30dd3063	1.6093619e-09
62	0x31348745	2.627034e-09
63	0xb0a6cb76	-1.2135917e-09
64	0x30fcc510	1.8391422e-09
65	0x2ea73599	7.6038016e-11
66	0xb1176eaf	-2.2036308e-09
67	0x3002af3d	4.7542753e-10
68	0xb0b7eae6	-1.3381765e-09
69	0x305b63e8	7.981371e-10
70	0x3143f50d	2.851553e-09
71	0x3044e8f1	7.1635414e-10
72	0x313723ad	2.6650284e-09
73	0x3133a59f	2.6142073e-09
74	0x3186acfb	3.919579e-09
75	0x301d85c2	5.730635e-10
76	0x2fc01897	3.494207e-10
77	0x30eef645	1.7386773e-09
78	0x31020f6f	1.8926263e-09
79	0x30ca93b3	1.4739413e-09
80	0x313ee06f	2.7776215e-09

exp_avg_sq f4 [64]
0	0x17040ade	4.2665217e-25
1	0x1724508c	5.309292e-25
2	0x1444d096	9.9366075e-27
3	0x1884ea8f	3.4358044e-24
4	0x161a304c	1.2455261e-25
5	0x1656fe5f	1.7367048e-25
6	0x153e15ad	3.8387294e-26
7	0x168f0b2e	2.3109951e-25
8	0x1705c8b3	4.3227936e-25
9	0x14a0b014	1.6225322e-26
10	0x17a557ac	1.0685007e-24
11	0x177c17e2	8.1455736e-25
12	0x14665c72	1.1630264e-26
13	0x1629d504	1.3718927e-25
14	0x17308345	5.7034353e-25
15	0x1722e700	5.2636586e-25
16	0x17356e70	5.8623646e-25
17	0x17a2a15c	1.0509737e-24
18	0x140cb175	7.103191e-27
19	0x141854ab	7.690737e-27
20	0x134d6126	2.5922536e-27
21	0x14f5e7ef	2.483016e-26
22	0x1384f628	3.3564213e-27
23	0x1487dee9	1.3719439e-26
24	0x1550c152	4.2157768e-26
25	0x16551b65	1.7214647e-25
26	0x15a7fd60	6.785052e-26
27	0x164fb176	1.6777324e-25
28	0x137d4cd3	3.1970967e-27
29	0x142dcd99	8.774815e-27
30	0x17803450	8.285012e-25
31	0x16168395	1.2158423e-25
32	0x141df476	7.974686e-27
33	0x15fa1632	1.01009214e-25
34	0x17b4cd8e	1.1684117e-24
35	0x168c1ae7	2.2635198e-25
36	0x16861291	2.1660585e-25
37	0x15b44798	7.2814376e-26
38	0x1729c47a	5.4854833e-25
39	0x16a69931	2.6915424e-25
40	0x16911d7b	2.3444618e-25
41	0x16db02f4	3.5383222e-25
42	0x15899c66	5.558061e-26
43	0x16581eca	1.7458056e-25
44	0x170bb308	4.513929e-25
45	0x158d3b08	5.704258e-26
46	0x13de4fb4	5.6119272e-27
47	0x18935f70	3.8094977e-24
48	0x17071f2b	4.366019e-25
49	0x170a54c1	4.469718e-25
50	0x16ee3be6	3.8488775e-25
51	0x16162ecc	1.213167e-25
52	0x172d6450	5.6025927e-25
53	0x1434bbc5	9.124709e-27
54	0x18e6f078	5.9696418e-24
55	0x16050a11	1.0746831e-25
56	0x162ffe94	1.4216718e-25
57	0x186e9a30	3.0838624e-24
58	0x18af353e	4.52902e-24
59	0x13ed068b	5.9833663e-27
60	0x15d76b1d	8.7006803e-26
61	0x1451d0b3	1.0592962e-26
62	0x14eab1e8	2.3698133e-26
63	0x1701c25b	4.192746e-25

exp_avg f4 [64]
0	0x28799729	1.3855054e-14
1	0xa7512937	-2.902692e-15
2	0x23de00df	2.4069657e-17
3	0x28a81dc0	1.8664649e-14
4	0xa573b722	-2.1138938e-16
5	0x288f3796	1.5900296e-14
6	0xa61a015b	-5.343132e-16
7	0x278fd625	3.992265e-15
8	0x28862508	1.4893048e-14
9	0x263abb8d	6.478589e-16
10	0x288d64ed	1.5697914e-14
11	0x2814e7c6	8.265908e-15
12	0x26b2a4bc	1.2395882e-15
13	0xa6ef8129	-1.6618965e-15
14	0xa7de4b74	-6.1699184e-15
15	0x28e83f71	2.5784687e-14
16	0xa9222d81	-3.6010694e-14
17	0xa57d6257	-2.1977571e-16
18	0xa6eba33b	-1.6350644e-15
19	0xa36b6c6c	-1.2762335e-17
20	0x249bc1b0	6.7548654e-17
21	0x27301a6a	2.4439226e-15
22	0xa5a6923d	-2.8895505e-16
23	0xa69380d1	-1.023509e-15
24	0x26ba0e3a	1.2910199e-15
25	0xa816170d	-8.331671e-15
26	0x2677e8ec	8.601101e-16
27	0xa65a423b	-7.57237e-16
28	0xa560bc64	-1.9492732e-16
29	0xa0179430	-1.2839229e-19
30	0xa8a41c2d	-1.8219877e-14
31	0xa77f187e	-3.5401636e-15
32	0xa6334ab0	-6.220432e-16
33	0xa7e3929c	-6.316411e-15
34	0xa84f11cc	-1.1494667e-14
35	0xa8caa262	-2.2496927e-14
36	0xa8917ab1	-1.6151443e-14
37	0x250d5283	1.2257757e-16
38	0xa6d05409	-1.4455677e-15
39	0xa694a8e0	-1.0315337e-15
40	0xa6d9a3e0	-1.5101818e-15
41	0xa7f2e282	-6.7414073e-15
42	0xa79a5e67	-4.2845938e-15
43	0xa4ebe022	-1.022947e-16
44	0xa7b5c447	-5.0450396e-15
45	0x26c4c607	1.3653907e-15
46	0xa5693d47	-2.023029e-16
47	0xa7a6ab3c	-4.625991e-15
48	0x2689eb3b	9.570044e-16
49	0xa6e4a5ab	-1.5865582e-15
50	0x2866f47e	1.28205806e-14
51	0x2805fe86	7.438174e-15
52	0x277f03f4	3.5390502e-15
53	0xa4c1130c	-8.3732674e-17
54	0xa719e1ca	-2.1355416e-15
55	0x28309f81	9.8045495e-15
56	0xa7c98927	-5.5937408e-15
57	0x28fc2df4	2.799755e-14
58	0x26833527	9.104358e-16
59	0x261cb436	5.4367604e-16
60	0xa757620d	-2.9890397e-15
61	0xa5dce0ba	-3.8316197e-16
62	0x272d3b40	2.4040692e-15
63	0xa7d2d819	-5.8521002e-15

exp_avg_sq f4 [64]
0	0x2b9d0943	1.1158092e-12
1	0x2abfc3f4	3.4064385e-13
2	0x2a0289e9	1.1594167e-13
3	0x2c088664	1.9401364e-12
4	0x2a335359	1.5927311e-13
5	0x2a0acc0b	1.2327654e-13
6	0x292d65f9	3.8502164e-14
7	0x2b803dcf	9.112102e-13
8	0x2a960364	2.6647705e-13
9	0x281e3591	8.782377e-15
10	0x2b87289d	9.603599e-13
11	0x2b47aac6	7.0936e-13
12	0x2882da02	1.4527445e-14
13	0x2aca2443	3.590757e-13
14	0x2c1aae6f	2.1981546e-12
15	0x2b396e19	6.5877994e-13
16	0x2c0c75dd	1.9960624e-12
17	0x2a27e39c	1.4911547e-13
18	0x2989d45b	6.12086e-14
19	0x297cd629	5.6140995e-14
20	0x286893c9	1.2910633e-14
21	0x2875f65c	1.3653653e-14
22	0x281a1e97	8.55535e-15
23	0x29c13068	8.579319e-14
24	0x2a2f8adc	1.5591299e-13
25	0x2b4145bc	6.866415e-13
26	0x2a824b4c	2.3144887e-13
27	0x2b9b5c90	1.1039104e-12
28	0x27152691	2.069881e-15
29	0x2821b113	8.975692e-15
30	0x29f94b16	1.10708467e-13
31	0x29ed380d	1.05346375e-13
32	0x298b25e8	6.179416e-14
33	0x29d18f87	9.3063625e-14
34	0x2a2ed61d	1.552859e-13
35	0x2a9d4a94	2.794055e-13
36	0x2b14afa1	5.2823897e-13
37	0x2a19818c	1.3634075e-13
38	0x2af014b0	4.264692e-13
39	0x2ce48756	6.495175e-12
40	0x291541be	3.314167e-14
41	0x2b779ae5	8.7966987e-13
42	0x2a6e7ead	2.1182596e-13
43	0x2ac1920c	3.4385027e-13
44	0x2a5be5e8	1.9530872e-13
45	0x2a34873c	1.603413e-13
46	0x27d2da85	5.852363e-15
47	0x2aa5c2f4	2.9445164e-13
48	0x2ae3f590	4.0493693e-13
49	0x2b33929c	6.3797036e-13
50	0x2ae5d002	4.0822906e-13
51	0x2a859e84	2.3735538e-13
52	0x2becf8af	1.6837832e-12
53	0x294c8e29	4.5420404e-14
54	0x2a9b5814	2.7594647e-13
55	0x2b3013e2	6.2555354e-13
56	0x2a118ac5	1.2926732e-13
57	0x2b210fdd	5.7220705e-13
58	0x2cd4d133	6.048628e-12
59	0x29b9f7ce	8.2586376e-14
60	0x2aa544e8	2.93577e-13
61	0x294219c0	4.3098988e-14
62	0x2a45bc57	1.7562458e-13
63	0x2b943a7a	1.0532263e-12

exp_avg f4 [64]
0	0xb10106cc	-1.8775834e-09
1	0x31f29f1e	7.0612165e-09
2	0xb051c223	-7.630964e-10
3	0xb01e59c1	-5.7607613e-10
4	0x3084c5e2	9.660506e-10
5	0xb09d60e6	-1.1450794e-09
6	0xb22e2c89	-1.0138259e-08
7	0x31f45d77	7.1119604e-09
8	0xaef97c53	-1.13452935e-10
9	0x2f874f08	2.4612512e-10
10	0xb07ee9a9	-9.273671e-10
11	0xb2fc1793	-2.9347381e-08
12	0x310a63db	2.0138404e-09
13	0xb1a426ec	-4.777453e-09
14	0x3295e082	1.7447977e-08
15	0x314d8766	2.9908391e-09
16	0xb29c2ecf	-1.8182076e-08
17	0xb242afef	-1.1332289e-08
18	0xb020e03a	-5.8526306e-10
19	0xaf93d480	-2.6890135e-10
20	0x2bb2c8b2	1.2703365e-12
21	0x30848552	9.642156e-10
22	0xaebc5f19	-8.566143e-11
23	0xb23a3859	-1.0839437e-08
24	0x2e1a697f	3.5109245e-11
25	0x32f4b701	2.8488559e-08
26	0x31bfcded	5.5822427e-09
27	0xb22c6f82	-1.0037072e-08
28	0xb050b31f	-7.5924506e-10
29	0xb0c350a0	-1.4211032e-09
30	0x316070b4	3.2660354e-09
31	0x31e5fbbd	6.6933965e-09
32	0xb18b62dc	-4.0566714e-09
33	0x31168aa4	2.190668e-09
34	0xb2081c5e	-7.922692e-09
35	0xb212434f	-8.513623e-09
36	0xb0724dcb	-8.814964e-10
37	0x31c68d2a	5.778607e-09
38	0xb2248dc1	-9.5782875e-09
39	0x3386446f	6.252309e-08
40	0xb015a55f	-5.444089e-10
41	0x3263e702	1.3265664e-08
42	0x312c2208	2.5048639e-09
43	0x32729c40	1.4121781e-08
44	0x32109fb0	8.418212e-09
45	0x3152dcd0	3.068454e-09
46	0x3000f583	4.691502e-10
47	0xb2830e5d	-1.5256939e-08
48	0xb3081b06	-3.1689545e-08
49	0x3119dbda	2.2389401e-09
50	0x32531e5f	1.2288722e-08
51	0x30cd6ff1	1.4947529e-09
52	0xb32f9a3a	-4.088563e-08
53	0xb1b02d3c	-5.1274167e-09
54	0xb25b4506	-1.2763172e-08
55	0x3320f427	3.747496e-08
56	0x307226e3	8.809435e-10
57	0x31408d23	2.8019904e-09
58	0x3397846e	7.055574e-08
59	0x32271784	9.726026e-09
60	0xb1cc0ad9	-5.9384146e-09
61	0xb14b3c89	-2.9574798e-09
62	0xb0a7715f	-1.2183071e-09
63	0x32e89261	2.707492e-08

exp_avg_sq f4 [16]
0	0x2c10fe7c	2.0604898e-12
1	0x2bccc0e0	1.4548605e-12
2	0x2f6d8a79	2.160422e-10
3	0x2b8cd45b	1.0006539e-12
4	0x2b333d3b	6.367855e-13
5	0x2ce5d744	6.5324707e-12
6	0x30293a94	6.1565086e-10
7	0x2bbac804	1.327161e-12
8	0x2bf75701	1.7574554e-12
9	0x2bb07769	1.2538695e-12
10	0x2b7f43f9	9.068853e-13
11	0x2bc04a80	1.3663098e-12
12	0x2cfe3511	7.2250057e-12
13	0x3221ac6e	9.410639e-09
14	0x2c46e613	2.826521e-12
15	0x2b90abe9	1.027953e-12

exp_avg f4 [16]
0	0xb36688f3	-5.3675603e-08
1	0xb18ff45a	-4.1896273e-09
2	0x3588d3cd	1.0194432e-06
3	0x32b4dece	2.1056078e-08
4	0xb222574e	-9.449492e-09
5	0xb40bb0e6	-1.3009739e-07
6	0x366267d9	3.3737072e-06
7	0x33a1116c	7.500316e-08
8	0x32b61574	2.1197344e-08
9	0x329085c1	1.682463e-08
10	0x335cb8dd	5.1390874e-08
11	0x31ef8174	6.9705326e-09
12	0x351225af	5.4444075e-07
13	0xb7041a9d	-7.8740095e-06
14	0x3498da4a	2.8471032e-07
15	0xb37cdaa5	-5.887218e-08

exp_avg_sq f4 [3]
0	0x33a34595	7.602936e-08
1	0x31ab001e	4.9767683e-09
2	0x32d65eb8	2.4955952e-08

exp_avg f4 [3]
0	0x359a80ae	1.1511345e-06
1	0xb4ae6fc5	-3.249135e-07
2	0xb3211e37	-3.7513214e-08

exp_avg_sq f4 [16]
0	0x3065458f	8.3408563e-10
1	0x3347b536	4.649811e-08
2	0x2df7d264	2.8174081e-11
3	0x30a6263a	1.2088954e-09
4	0x2d44bc78	1.11831586e-11
5	0x2cc2fcfd	5.541899e-12
6	0x3336dbf5	4.2575227e-08
7	0x308b21fa	1.0123238e-09
8	0x3236492a	1.061043e-08
9	0x2ce97cb0	6.6361014e-12
10	0x326bbb51	1.3721391e-08
11	0x2c817f46	3.6805307e-12
12	0x3104f5ea	1.9348314e-09
13	0x2c0ea46a	2.0270682e-12
14	0x2f85edea	2.4361607e-10
15	0x2c60fab6	3.1971487e-12

exp_avg f4 [16]
0	0xb4e3a066	-4.239875e-07
1	0xb7c18531	-2.3069415e-05
2	0x26cd53d2	1.4247452e-15
3	0xaa43ab45	-1.73789e-13
4	0x31da385c	6.3510424e-09
5	0x29447aed	4.3627364e-14
6	0xb7ae60d2	-2.0787502e-05
7	0xa8c5d891	-2.1965314e-14
8	0x2c8a7ae0	3.9358378e-12
9	0xaa082517	-1.2092095e-13
10	0x378bfcb7	1.668777e-05
11	0xad8a7314	-1.5739889e-11
12	0x294e9ee1	4.5878994e-14
13	0x29d292a9	9.351315e-14
14	0xb2d770fe	-2.5080677e-08
15	0xab5b63b3	-7.794279e-13
