Models/Main/netD.pt (torch_old, 32561 bytes, 28 tensors)

conv1.weight f4 [8, 2, 3, 3]
-0.09294864 0.19923067 0.24919082 -0.3692852 0.21038163 0.19509274 -0.41864076 0.080279686
0.064589925 0.10286934 0.01164455 0.13118409 -0.11172151 0.13207522 -0.019521387 -0.14697877
0.1078985 0.058520205 0.013662445 0.37649214 -0.43984136 0.2072098 0.40432942 -0.29564404
0.2406579 0.44367677 -0.2634869 -0.15927579 -0.08044499 -0.7454256 0.1708285 0.24704117
-0.64888114 -0.054227557 0.21596162 -0.82785577 -0.09594598 0.29750758 -0.5179068 0.20190004
0.22295454 -0.36748528 0.049271904 0.33968794 -0.34697777 -0.19537163 0.31236818 -0.4694527
0.10171923 0.22804056 -0.29030174 -0.036783904 0.337633 -0.28177795 0.0466316 0.058417395
-0.0660695 0.2300685 0.16988772 -0.1475157 0.18403943 -0.10961006 -0.011879119 0.1761151
0.09840669 -0.05295254 0.21217632 0.15274148 0.24134117 0.19093116 -0.14893608 0.1049688
-0.42935255 0.055788673 0.31603467 -0.31138888 -0.13222034 -0.18405005 -0.4228541 0.25708932
0.075848 -0.38482654 0.029993447 0.35921228 -0.45390785 0.012612605 -0.19905807 -0.26595202
0.15965654 0.17517014 -0.09556471 -0.08109352 -0.20237906 0.11112287 -0.17056233 -0.20445599
-0.07264158 0.0887827 -0.32126945 -0.25685152 -0.14922094 -0.2876326 0.0061835665 -0.4332643
-0.44127804 -0.051432155 0.035893355 -0.5607981 0.25992528 0.026827822 0.3636724 0.106746644
-0.23519906 0.007587803 0.07502488 0.1981572 0.0736021 0.1810554 0.2647638 0.29559302
0.015176297 -0.23404153 0.03677678 0.045104533 0.09923594 -0.049961027 -0.094121255 -0.11576501
-0.48030978 -0.54073715 -0.5645472 -0.621048 -0.12010308 -0.19060445 -0.42464235 0.091275126
0.28802273 -0.21931182 -0.23234247 -0.1906338 -0.43541756 0.32410043 0.14780112 -0.49038413
00000000: db5b bebd 2003 4c3e e12b 7f3e f312 bdbe
00000010: 486e 573e 64c6 473e 1558 d6be ad69 a43d
00000020: b947 843d 29ad d23d c8c8 3e3c 1f55 063e
00000030: 3fce e4bd ba3e 073e 51eb 9fbc 9a81 16be
00000040: e4f9 dc3d e2b2 6f3d 73d8 5f3c 94c3 c03e
00000050: e332 e1be ce2e 543e 4404 cf3e a85e 97be
00000060: 066f 763e 9a29 e33e c1e7 86be 3119 23be
00000070: 58c0 a4bd 36d4 3ebf abed 2e3e 5cf8 7c3e
00000080: 131d 26bf b71d 5ebd 0b25 5d3e 5bee 53bf
00000090: 537f c4bd ea52 983e 8a95 04bf e2be 4e3e
000000a0: 324e 643e 0827 bcbe 56d1 493d 94eb ad3e
000000b0: 12a7 b1be 800f 48be b9ee 9f3e 1b5c f0be
000000c0: 2c52 d03d 7783 693e 6ea2 94be b8aa 16bd
000000d0: 3cde ac3e 3345 90be c700 3f3d 1447 6f3d
000000e0: 724f 87bd 1497 6b3e 0cf7 2d3e 5b0e 17be
000000f0: d574 3c3e 3d7b e0bd a3a0 42bc 8457 343e
00000100: 7289 c93d c3e4 58bd c044 593e 4368 1c3e
00000110: 2422 773e 7583 433e b382 18be e2f9 d63d
00000120: 19d4 dbbe aa82 643d 4ccf a13e 5d6e 9fbe
00000130: c564 07be 9e77 3cbe 5580 d8be 36a1 833e
00000140: 3256 9b3d fc07 c5be d1b4 f53c acea b73e
00000150: 9c66 e8be 19a5 4e3c e1d5 4bbe dd2a 88be
00000160: 017d 233e cd5f 333e 6eb7 c3bd 5c14 a6bd
00000170: 753c 4fbe 6394 e33d e4a7 2ebe e95c 51be
00000180: 1cc5 94bd b4d3 b53d 6e7d a4be 0b82 83be
00000190: 60cd 18be 9544 93be 849f ca3b d1d4 ddbe
000001a0: 32ef e1be 86aa 52bd e904 133d 7790 0fbf
000001b0: ed14 853e 05c6 db3c 4533 ba3e fc9d da3d
000001c0: 06d8 70be 1ba3 f83b a5a6 993d b9e9 4a3e
000001d0: b3bc 963d 9666 393e 1f8f 873e f857 973e
000001e0: 01a6 783c 95a8 6fbe 40a3 163d 88bf 383d
000001f0: 363c cb3d efa3 4cbd a5c2 c0bd 3516 edbd
00000200: 2aeb f5be c06d 0abf 2a86 10bf 00fd 1ebf
00000210: 9bf8 f5bd d02d 43be b96a d9be 74ee ba3d
00000220: b777 933e 4793 60be 2feb 6dbe 8235 43be
00000230: 0def debe 7ef0 a53e 2d59 173e a113 fbbe

conv1.bias f4 [8]
0.024924574 0.20241426 -0.02820264 0.084834985 -0.14347112 -0.031549495 0.016492618 0.1941498
00000000: 9f2e cc3c af45 4f3e 3909 e7bc f7bd ad3d
00000010: 18ea 12be 0b3a 01bd 871b 873c 35cf 463e

bn1.weight f4 [8]
0.63623095 0.9232472 0.49590555 0.06158055 0.84505713 0.7706437 0.65574515 1.0613816
00000000: 08e0 223f ee59 6c3f 55e7 fd3e e33b 7c3d
00000010: aa55 583f e848 453f eade 273f 5adb 873f

bn1.bias f4 [8]
-0.2938861 -1.194109 -0.056521304 -0.08928149 -0.34826103 -0.56549054 -0.3417273 -1.3536363
00000000: 3d78 96be 90d8 98bf e282 67bd 37d9 b6bd
00000010: 454f b2be fdc3 10bf e1f6 aebe f443 adbf

bn1.running_mean f4 [8]
0.21367005 -0.3559407 -0.27813667 0.7352093 -0.81038076 -1.544664 0.77531976 -1.7505465
00000000: 52cc 5a3e dc3d b6be ee67 8ebe ad36 3c3f
00000010: 1d75 4fbf 8db7 c5bf 5b7b 463f e811 e0bf

bn1.running_var f4 [8]
0.0010944568 0.016466474 0.0028950148 0.0018346203 0.0030624364 0.008425505 0.002003026 0.012695375
00000000: e073 8f3a b3e4 863c 4aba 3d3b a477 f03a
00000010: 28b3 483b 210b 0a3c 3345 033b 4300 503c

prelu1.weight f4 [8]
-0.14521584 -0.012593961 0.11850765 0.22895299 -0.08646986 0.0322297 -0.13147153 0.020372653
00000000: 76b3 14be e756 4ebc 24b4 f23d a772 6a3e
00000010: 1c17 b1bd 4a03 043d 79a0 06be 8de4 a63c

conv2.weight f4 [16, 8, 3, 3]
0.076133005 0.049609262 0.11348803 -0.10625316 0.035261434 0.068097554 -0.0050480086 -0.032512967
0.06270776 -0.016696526 0.1439094 -0.14033589 0.020403614 0.18433906 -0.102964796 -0.0026774576
0.16565597 -0.14018095 -0.12052509 -0.029212194 -0.030125905 -0.060368113 -0.20816249 -0.13362661
-0.1354356 -0.15329565 -0.09813292 0.0652897 0.117952004 -0.04386111 0.07144252 -0.062577315
-0.065151006 0.041092932 0.018416697 -0.08188071 0.04013935 -0.06911696 -0.029518034 -0.017411826
-0.112718455 -0.07955279 -0.06633006 -0.11369705 0.14164032 0.041455228 0.06720273 -0.062898874
0.06847028 -0.039085295 -0.14048582 -0.039695036 -0.03078225 -0.18744206 -0.045216203 0.07761685
-0.13816802 0.023984285 -0.0100552235 -0.013755326 0.06967557 -0.13397554 -0.10310905 -0.05466785
0.13294318 -0.26393375 -0.01113873 0.109010056 -0.1313671 -0.031213438 0.11587376 -0.3046768
-0.07642876 0.019868165 -0.09951435 -0.046974137 0.022364274 -0.11604595 -0.038574055 -0.083108395
-0.032777943 -0.023057487 0.040439095 -0.075594865 0.06037156 0.038763836 -0.017777892 -0.044354796
-0.023708945 -0.00678633 0.03465083 -0.110657565 -0.006177637 0.013090624 -0.057628803 -0.084153965
-0.087438755 -0.006471619 0.057549875 -0.09837386 0.09745916 0.09873711 -0.09357093 0.05334299
-0.03334874 -0.034409974 -0.111345425 -0.051259924 -0.046752702 -0.011575359 -0.07576705 0.058407713
-0.08094705 0.10673315 -0.0018104272 -0.105423406 -0.0128766205 -0.060806345 0.10309569 -0.1198991
0.107030965 -0.010200538 -0.033751134 0.013407354 0.102872 -0.08485472 0.06405696 -0.046657573
0.09317259 0.048744865 -0.07021314 -0.020474888 -0.08024955 -0.027693484 -0.095115565 0.10436136
0.022652697 -0.11384353 -0.09400623 -0.07972744 -0.08537535 0.070334 0.000890599 -0.036414046
0.052704062 -0.03038596 -0.037158366 -0.000621596 -0.0686127 0.059197593 -0.022559533 0.08760326
0.011458126 -0.0686007 0.01588986 0.14851603 0.113090895 0.12354136 0.11369483 0.107339345
-0.032292478 0.12089017 0.032277115 -0.1181658 0.07885791 -0.11388645 0.09492276 0.027644722
-0.12386924 0.007922997 0.10776252 0.033289652 0.0145125855 0.04902638 0.08910424 0.0012288122
-0.052389424 0.02597223 -0.052896407 -0.038196035 -0.12011267 -0.07396881 -0.08618899 -0.13226096
-0.074124716 0.01824864 0.017129377 0.038967855 -0.053539596 0.06871997 -0.15883671 -0.014554601
0.07509597 -0.04148731 -0.00068403844 0.013627273 0.023223653 0.0003101767 0.053707447 0.065100275
-0.016174773 -0.034883503 0.0332794 0.16350982 0.020398382 0.0386504 0.06614071 0.06493688
-0.097063996 0.18022501 0.031543493 -0.0231007 0.023825454 0.038729265 0.016175732 0.10683028
0.08346679 -0.095298566 0.102107376 -0.08448819 -0.10864659 -0.000690042 -0.079141624 -0.03750508
-0.07940371 -0.10202372 0.037298832 0.10213501 -0.034182683 -0.019736236 -0.11289584 0.06993067
-0.045951914 0.08122397 0.011030396 -0.06104543 0.06752648 -0.058558386 -0.083366 -0.03180392
0.095882915 0.088717096 -0.011695863 0.10255751 0.020825658 -0.059990805 0.09007127 -0.06610852
-0.026620753 0.07144771 -0.047154374 0.055137027 -0.069786385 -0.08766456 -0.10482288 0.05846524
00000000: 9feb 9b3d 1533 4b3d 6a6c e83d 429b d9bd
00000010: 4b6e 103d bb76 8b3d c469 a5bb 512c 05bd
00000020: ed6c 803d 27c7 88bc fc5c 133e 36b4 0fbe
00000030: 7b25 a73c 61c3 3c3e 35df d2bd 4978 2fbb
00000040: b8a1 293e 988b 0fbe dcd5 f6bd 694e efbc
00000050: 9aca f6bc 8e44 77bd 8c28 55be 6ad5 08be
00000060: a1af 0abe 89f9 1cbe eaf9 c8bd 9bb6 853d
00000070: d290 f13d b5a7 33bd 7550 923d 8928 80bd
00000080: e46d 85bd 1051 283d 9dde 963c 13b1 a7bd
00000090: 2969 243d 318d 8dbd cecf f1bc 3fa3 8ebc
000000a0: efd8 e6bd 93ec a2bd 0ed8 87bd 00da e8bd
000000b0: 290a 113e f5cc 293d 96a1 893d 20d1 80bd
000000c0: 253a 8c3d e717 20bd 84db 0fbe 4397 22bd
000000d0: 0f2b fcbc d0f0 3fbe a034 39bd 95f5 9e3d
000000e0: eb7b 0dbe b17a c43c aabe 24bc 055e 61bc
000000f0: 11b2 8e3d e230 09be d62a d3bd 65eb 5fbd
00000100: 4222 083e 5322 87be 387f 36bc aa40 df3d
00000110: 1985 06be 53b3 ffbc 394f ed3d 99fe 9bbe
00000120: af86 9cbd 90c2 a23c 2ece cbbd f467 40bd
00000130: 4835 b73c 80a9 edbd d4ff 1dbd bc34 aabd
00000140: 2a42 06bd 0ee3 bcbc 77a3 253d 7bd1 9abd
00000150: 2b48 773d d4c6 1e3d f1a2 91bc 60ad 35bd
00000160: 4339 c2bc dd5f debb 07ee 0d3d 6fa0 e2bd
00000170: c66d cabb 0e7a 563c 2e0c 6cbd ea58 acbd
00000180: 1713 b3bd e00f d4bb 6bb9 6b3d 3c78 c9bd
00000190: ab98 c73d af36 ca3d 1ea2 bfbd 2e7e 5a3d
000001a0: b098 08bd 79f1 0cbd 1209 e4bd edf5 51bd
000001b0: c37f 3fbd 93a6 3dbc c12b 9bbd ed3c 6f3d
000001c0: 91c7 a5bd e996 da3d db4b edba 3ae8 d7bd
000001d0: 76f8 52bc 1310 79bd d523 d33d a98d f5bd
000001e0: 0d33 db3d 2820 27bc a13e 0abd 85aa 5b3c
000001f0: 8eae d23d 50c8 adbd 4c30 833d 031c 3fbd
00000200: 45d1 be3d b2a8 473d e8cb 8fbd f4ba a7bc
00000210: e059 a4bd 72dd e2bc f3cb c2bd 69bb d53d
00000220: 2692 b93c cc26 e9bd 5786 c0bd 2448 a3bd
00000230: 46d9 aebd 460b 903d 1677 693a e526 15bd
00000240: 37e0 573d faeb f8bc 5f33 18bd 9af2 22ba
00000250: d184 8cbd 2d79 723d c5ce b8bc 5769 b33d
00000260: ddba 3b3c 867e 8cbd 742b 823c 9614 183e
00000270: 339c e73d 4103 fd3d d6d8 e83d bbd4 db3d
00000280: 1e45 04bd 4495 f73d 0235 043d e900 f2bd
00000290: 4280 a13d 4d3d e9bd dd66 c23d 2f77 e23c
000002a0: 28af fdbd 75cf 013c 99b2 dc3d bb5a 083d
000002b0: 32c6 6d3c e3cf 483d 497c b63d 1810 a13a
000002c0: 4b96 56bd b7c3 d43c e7a9 58bd 7273 1cbd
000002d0: a2fd f5bd f67c 97bd da83 b0bd 6b6f 07be
000002e0: b3ce 97bd 2c7e 953c e852 8c3c c29c 1f3d
000002f0: 564c 5bbd 0ebd 8c3d 17a6 22be 6c76 6ebc
00000300: eacb 993d 99ee 29bd 0b51 33ba ed44 5f3c
00000310: 883f be3c 369f a239 57fc 5b3d 4b53 853d
00000320: f580 84bc 01e2 0ebd fb4f 083d 1e6f 273e
00000330: 821a a73c e24f 1e3d c874 873d a0fd 843d
00000340: 7dc9 c6bd e88c 383e c033 013d ae3d bdbc
00000350: 992d c33c 94a2 1e3d f882 843c d5c9 da3d
00000360: a3f0 aa3d e52b c3bd ac1d d13d 2508 adbd
00000370: 1a82 debd efe3 34ba 0115 a2bd ed9e 19bd
00000380: 6a9e a2bd d0f1 d0bd a9c6 183d 292c d13d
00000390: 2403 0cbd e3ad a1bc ef35 e7bd d037 8f3d
000003a0: 1338 3cbd c158 a63d d6b8 343c c60a 7abd
000003b0: 534b 8a3d ebda 6fbd cbbb aabd d444 02bd
000003c0: 435e c43d 4fb1 b53d 01a0 3fbc ac09 d23d
000003d0: 929a aa3c ebb8 75bd 4977 b83d e763 87bd
000003e0: c413 dabc 2d53 923d f224 41bd 5dd7 613d
000003f0: 2aec 8ebd 7a89 b3bd 61ad d6bd 3f79 6f3d

conv2.bias f4 [16]
0.115257 0.021314437 0.064134866 -0.11450544 -0.04860956 -0.035991225 -0.008256176 -0.071802184
-0.0070535196 -0.061021883 -0.020645263 0.09247234 0.052012905 0.075571686 -0.093959376 -0.023911744
00000000: dd0b ec3d 9d9b ae3c 2459 833d d481 eabd
00000010: d11a 47bd 896b 13bd e944 07bc 060d 93bd
00000020: 3621 e7bb 15f2 79bd 4120 a9bc 2362 bd3d
00000030: 7c0b 553d 54c5 9a3d c66d c0bd 90e2 c3bc

bn2.weight f4 [16]
0.74176955 0.14822525 0.1342895 0.005785256 0.55606544 0.5628436 0.9425796 0.21456994
0.9203295 0.65434027 -0.0036082966 0.56902605 0.24419999 0.8389249 0.045541037 0.73156905
00000000: 9ce4 3d3f 5cc8 173e 3083 093e 3f92 bd3b
00000010: 4e5a 0e3f 8516 103f e64c 713f 39b8 5b3e
00000020: b79a 6b3f d882 273f 2c79 6cbb b1ab 113f
00000030: 900f 7a3e c8c3 563f 3d89 3a3d 1c48 3b3f

bn2.bias f4 [16]
-0.38976267 -0.1332839 0.16440466 -0.050569963 -0.33959034 -0.34018996 -0.547691 -0.09049844
-0.56902474 -0.47782135 -0.02549735 -0.52918464 -0.26434377 -0.5880117 0.061038047 -0.43606123
00000000: f98e c7be 937b 08be b259 283e 7322 4fbd
00000010: c9de adbe 612d aebe 7a35 0cbf 3f57 b9bd
00000020: 9bab 11bf 00a5 f4be d2df d0bc a578 07bf
00000030: 1158 87be ef87 16bf 0803 7a3d 6b43 dfbe

bn2.running_mean f4 [16]
0.050131325 -0.04349379 0.090908565 -0.15263058 -0.13428517 -0.0638886 -0.073889896 -0.088172644
-0.061478678 -0.25026363 -0.044730134 0.29881305 0.02622951 -0.048233077 -0.033443045 -0.18517011
00000000: 8156 4d3d 8b26 32bd 452e ba3d 314b 1cbe
00000010: 0d82 09be 07d8 82bd 9653 97bd dc93 b4bd
00000020: 11d1 7bbd 8e22 80be f236 37bd 06fe 983e
00000030: 45df d63c 0c90 45bd 93fb 08bd 3c9d 3dbe

bn2.running_var f4 [16]
1.062168 0.14702818 0.31366447 0.11827666 0.3372116 1.0551081 1.1746098 0.17888689
2.7855506 0.59601337 0.10048215 2.6466637 0.9771984 2.5861409 0.15774433 0.72513896
00000000: 1ff5 873f 8e8e 163e a198 a03e 093b f23d
00000010: 00a7 ac3e c80d 873f 9d59 963f 202e 373e
00000020: 7646 3240 5594 183f 96c9 cd3d f062 2940
00000030: ad29 7a3f 5583 2540 bb87 213e b5a2 393f

prelu2.weight f4 [16]
0.032452416 0.10983265 0.22570013 0.23670366 0.1130155 -0.025490858 -0.12560508 0.25037897
-0.038177647 -0.07269121 0.2471247 -0.037196275 -0.013726339 0.0142658735 0.24688955 0.19315499
00000000: d3ec 043d f1ef e03d ef1d 673e 7262 723e
00000010: ac74 e73d 34d2 d0bc 9e9e 00be ac31 803e
00000020: 2a60 1cbd 21df 94bd 420e 7d3e 1f5b 18bd
00000030: 70e4 60bc 69bb 693c 9dd0 7c3e 6cca 453e

conv3.weight f4 [32, 16, 3, 3]
0.027020384 -0.014622471 -0.08347803 -0.08443276 -0.056706857 0.054351073 -0.077355795 -0.105010845
-0.080755346 0.0403987 0.03870983 0.06967233 -0.016564544 -0.061609328 -0.07067518 0.057231292
-0.026116693 -0.038978796 -0.005863865 -0.05101186 -0.08338676 0.03548474 0.017431378 0.028219301
-0.02887686 0.05423971 -0.026043005 -0.037618224 0.06259973 0.06170505 -0.03830812 -0.012501051
0.014867504 0.020439379 0.067283906 -0.06765853 0.041267615 -0.031032708 0.009656971 -0.041681416
0.028413707 0.051586248 0.037490673 0.07010565 0.0026221285 -0.05476978 -0.092149936 -0.049690414
-0.07886037 -0.016226893 -0.008004132 -0.042400554 -0.10280573 -0.07542958 -0.048737284 -0.02382668
-0.0155974915 -0.026633084 -0.09943295 -0.097861044 -0.01915646 -0.098463565 -0.046518926 0.0066298125
0.048331812 -0.045938678 -0.022457758 0.06901684 -0.016412443 -0.08605544 -0.0136607615 -0.057391208
-0.01219951 0.03656045 0.064795464 -0.07621896 0.00065218424 0.08649336 -0.019797198 -0.07856175
0.08904925 0.06550847 -0.014419842 -0.016476896 0.10473938 0.051618923 -0.026946314 0.044701517
0.033681713 0.043258443 0.06509586 -0.042433985 -0.049070105 -0.06986565 -0.019627979 -0.066339366
-0.06411925 0.06569205 -0.015914537 -0.0015150273 0.02058678 0.03294012 -0.037600234 0.120465465
0.18112677 -0.0269439 0.10442669 0.031844143 -0.06478726 0.043301184 0.025186626 -0.0054006903
-0.098351605 0.017761594 0.022677526 0.008049252 -0.04834744 -0.07454593 -0.06669362 0.14764012
-0.008634713 -0.067831084 0.006666446 0.0600383 0.022535797 0.03467095 0.017105933 -0.08006475
0.034452606 -0.06606451 0.021001615 -0.006668341 0.028147293 -0.053516056 -0.031973306 -0.08761062
0.037878852 0.033826217 0.02690677 0.073698506 -0.051303517 0.07288495 -0.005447926 -0.062165063
0.06446083 -0.02036423 -0.0214875 -0.05734812 0.07430145 -0.039905414 -0.070321016 -0.056283202
-0.074869245 -0.028582482 0.093351394 -0.05079981 0.017954955 -0.009081797 -0.066181 0.062273853
-0.05286178 -0.055036742 -0.063623816 0.05748656 -0.07069716 0.031913165 0.058389425 0.011716527
-0.052852023 -0.008324405 0.031980596 0.04775143 0.007199836 0.0009702902 0.027770046 0.050564036
0.05951714 -0.05240723 -0.01477637 -0.056601867 0.06393067 -0.031731915 0.07733251 0.04607297
0.09345392 -0.013996503 0.02276569 0.09946566 -0.016135192 -0.08276842 -0.0578083 -0.02173357
0.03266769 0.030415306 -0.06395892 -0.08246887 0.012629866 -0.025354141 0.013264673 -0.073306665
-0.01756913 -0.05178022 -0.031885482 0.043304626 -0.0026353577 0.06069626 -0.030726746 0.032926574
-0.048176903 -0.019094784 -0.039259046 0.008167054 -0.048707463 0.068132706 -0.024518669 -0.035502996
-0.020940173 -0.036542173 -0.16631125 0.065719806 -0.11792405 -0.09200227 -0.009924411 0.034290854
-0.11134434 -0.04826768 -0.03837432 0.022432446 -0.06230814 -0.056425866 -0.025374366 -0.05104106
0.012188311 -0.02351378 0.0012013401 0.061180234 -0.03951284 0.03136489 -0.04714111 -0.037301812
-0.06855207 0.019223202 -0.04212368 -0.0325833 0.03440189 -0.018325623 0.01720529 -0.10811313
-0.06794572 0.027912226 -0.071647406 -0.024635898 -0.025143035 -0.048804305 0.024796998 -0.075377025
00000000: da59 dd3c 1793 6fbc 88f6 aabd 15eb acbd
00000010: 7345 68bd 3b9f 5e3d b76c 9ebd ed0f d7bd
00000020: 0f63 a5bd 1b79 253d 338e 1e3d 5eb0 8e3d
00000030: 5eb2 87bc 105a 7cbd 26be 90bd 5c6b 6a3d
00000040: adf2 d5bc 3ba8 1fbd aa25 c0bb d0f1 50bd
00000050: adc6 aabd 7258 113d 40cc 8e3c 2a2c e73c
00000060: 2a8f ecbc 752a 5e3d 2458 d5bc 9115 1abd
00000070: 4a34 803d 6fbe 7c3d fae8 1cbd 35d1 4cbc
00000080: d596 733c 7c70 a73c 25cc 893d 8e90 8abd
00000090: 3b08 293d 4e38 febc 4638 1e3c 22ba 2abd
000000a0: ddc3 e83c 1a4c 533d d28f 193d 8d93 8f3d
000000b0: 04d8 2b3b 4756 60bd 1bb9 bcbd 2d88 4bbd
000000c0: 8c81 a1bd 43ee 84bc c323 03bc 34ac 2dbd
000000d0: d08b d2bd d37a 9abd bfa0 47bd 2b30 c3bc
000000e0: 9f8c 7fbc a02d dabc 81a3 cbbd 5f6b c8bd
000000f0: 02ee 9cbc 44a7 c9bd a18a 3ebd e63e d93b
00000100: 94f7 453d 322a 3cbd 55f9 b7bc b358 8d3d
00000110: 6373 86bc d63d b0bd 63d1 5fbc 0b13 6bbd
00000120: 74e0 47bc 69c0 153d 7cb3 843d b018 9cbd
00000130: 58f7 2a3a 6e23 b13d bc2d a2bc fce4 a0bd
00000140: 745f b63d 4e29 863d 3341 6cbc 8efa 86bc
00000150: 9a81 d63d 5d6e 533d 84be dcbc f018 373d
00000160: d6f5 093d c42f 313d fa50 853d 42cf 2dbd
00000170: bcfd 48bd b915 8fbd dbca a0bc efdc 87bd
00000180: f450 83bd 8e89 863d 345f 82bc e193 c6ba
00000190: 9ba5 a83c 38ec 063d b402 1abd 99b6 f63d
000001a0: 4c79 393e 74b9 dcbc a9dd d53d 016f 023d
000001b0: 2faf 84bd 955c 313d 2f54 ce3c 46f8 b0bb
000001c0: 916c c9bd c380 913c 38c6 b93c 03e1 033c
000001d0: f707 46bd 89ab 98bd aa96 88bd f92e 173e
000001e0: 9c78 0dbc 06eb 8abd 3472 da3b b8ea 753d
000001f0: fe9c b83c 2003 0e3d be21 8c3c fdf8 a3bd
00000200: 2d1e 0d3d d44c 87bd 940b ac3c 1982 dabb
00000210: 2795 e63c a733 5bbd 71f6 02bd 326d b3bd
00000220: db26 1b3d 5c8d 0a3d 966b dc3c 3eef 963d
00000230: a323 52bd b444 953d 8484 b2bb cba0 7ebd
00000240: 0a04 843d e3d2 a6bc 8e06 b0bc dde5 6abd
00000250: 5c2b 983d dc73 23bd 7704 90bd 3789 66bd
00000260: 0c55 99bd cf25 eabc 042f bf3d 7613 50bd
00000270: 4516 933c d1cb 14bc e789 87bd de12 7f3d
00000280: 9885 58bd 356e 61bd 344d 82bd 0777 6b3d
00000290: acc9 90bd 61b7 023d c029 6f3d adf6 3f3c
000002a0: 5d7b 58bd 1663 08bc 16fe 023d 0197 433d
000002b0: 9aec eb3b 135b 7e3a 027e e33c 3c1c 4f3d
000002c0: 3fc8 733d f7a8 56bd 9618 72bc 5cd7 67bd
000002d0: 15ee 823d 53f9 01bd 8260 9e3d 03b7 3c3d
000002e0: c564 bf3d 9751 65bc 1d7f ba3c a7b4 cb3d
000002f0: f32d 84bc 7d82 a9bd 65c8 6cbd 9a0a b2bc
00000300: 8ece 053d 8529 f93c e5fc 82bd 70e5 a8bd
00000310: 7fed 4e3c 7db3 cfbc 1254 593c ce21 96bd
00000320: 23ed 8fbc 7f17 54bd 5a9a 02bd 3160 313d
00000330: f7b5 2cbb a49c 783d a8b6 fbbc 04de 063d
00000340: 2555 45bd aa6c 9cbc 18ce 20bd 1bcf 053c
00000350: 7a81 47bd 2989 8b3d 60db c8bc 976b 11bd
00000360: ba8a abbc 3fad 15bd 7f4d 2abe 1b98 863d
00000370: 2a82 f1bd b06b bcbd ff99 22bc 9174 0c3d
00000380: 8008 e4bd 55b4 45bd 642e 1dbd 40c4 b73c
00000390: d236 7fbd cf1e 67bd e7dd cfbc 6e10 51bd
000003a0: 7bb1 473c f99f c0bc 4976 9d3a 2098 7a3d
000003b0: 37d8 21bd 7978 003d 0917 41bd c9c9 18bd
000003c0: 0765 8cbd fa79 9d3c e189 2cbd 1176 05bd
000003d0: ffe8 0c3d 9e1f 96bc 1cf2 8c3c 6b6a ddbd
000003e0: 2027 8bbd 2ea8 e43c e0bb 92bd 39d1 c9bc
000003f0: c4f8 cdbc 06e7 47bd 1323 cb3c 455f 9abd

conv3.bias f4 [32]
0.060973663 0.019983172 -0.08099528 0.031764675 0.013301004 -0.033191327 -0.04884618 -0.07150619
0.04458219 0.0030029486 0.08149529 -0.06734079 -0.07709441 -0.017954044 -0.020528674 0.0715122
-0.018805955 0.047366563 0.01146296 -0.036952347 0.002537784 0.07224328 -0.03441839 0.020601021
-0.008113871 -0.07542306 -0.04493306 -0.07500321 -0.05501624 -0.057030395 0.0060809413 0.059774455
00000000: 85bf 793d c0b3 a33c dae0 a5bd ad1b 023d
00000010: 74ec 593c a1f3 07bd ef12 48bd d671 92bd
00000020: d19b 363d 1ecd 443b 01e7 a63d f8e9 89bd
00000030: ade3 9dbd 5c14 93bc c02b a8bc fd74 923d
00000040: f20e 9abc 7103 423d 24cf 3b3c 585b 17bd
00000050: f350 263b 49f4 933d 4cfa 0cbd 79c3 a83c
00000060: 0bf0 04bc 6877 9abd ba0b 38bd 489b 99bd
00000070: b558 61bd b498 69bd a242 c73b 0fd6 743d

bn3.weight f4 [32]
0.4383466 0.47147372 0.65189147 0.24448025 0.731251 0.047226436 0.025297444 0.54475975
0.50394374 0.1784509 0.3354755 0.15880996 0.10418117 0.83663744 0.687082 0.3552721
0.7826779 0.16963063 0.64590913 0.10840856 0.858306 0.20344228 0.630902 1.0321796
0.8105148 0.74069726 0.5856922 0.1973265 0.8176141 0.1615848 0.205495 0.6036309
00000000: f76e e03e 0165 f13e 5ce2 263f 0859 7a3e
00000010: 4433 3b3f 8270 413d 963c cf3c 6075 0b3f
00000020: 7502 013f d5bb 363e 72c3 ab3e 149f 223e
00000030: f05c d53d df2d 563f 9be4 2f3f 3ae6 b53e
00000040: 945d 483f a7b3 2d3e 4d5a 253f 4f05 de3d
00000050: f1b9 5b3f 2c53 503e cb82 213f 761e 843f
00000060: e67d 4f3f 569e 3d3f edef 153f f50f 4a3e
00000070: 284f 513f 7c76 253e 486d 523e 8e87 1a3f

bn3.bias f4 [32]
-0.16297448 -0.2106941 -0.23197033 -0.07380683 -0.2772502 -0.018848231 -0.021225078 -0.35954997
-0.14863677 -0.02548363 -0.096186854 -0.056366585 -0.030583782 -0.3844728 -0.18392654 -0.05462944
-0.47425443 -0.07022159 -0.13596405 -0.050832823 -0.40778792 -0.039097913 -0.53942806 -0.52532715
-0.14872245 -0.32151785 -0.2909781 -0.11923057 -0.47985235 -0.07868176 -0.063967586 -0.30788735
00000000: c8e2 26be 32c0 57be a189 6dbe 0928 97bd
00000010: bdf3 8dbe 9b67 9abc 37e0 adbc ef16 b8be
00000020: 3d34 18be 0cc3 d0bc 9dfd c4bd a6e0 66bd
00000030: d78a fabc 9ed9 c4be 3d57 3cbe 1fc3 5fbd
00000040: 7ad1 f2be 56d0 8fbd 293a 0bbe 1436 50bd
00000050: 94c9 d0be 2225 20bd f517 0abf d77b 06bf
00000060: b34a 18be fd9d a4be 15fb 94be 282f f4bd
00000070: 35af f5be e723 a1bd 7001 83bd 69a3 9dbe

bn3.running_mean f4 [32]
0.041614622 -0.060462043 -0.08659556 0.045705926 -0.04064046 -0.0358467 -0.060763866 -0.22356202
-0.026604608 0.027443929 -0.0017613955 -0.06425361 -0.10389785 -0.047928594 0.023280302 0.06744385
-0.16668183 0.038166437 -0.11080819 -0.033485696 -0.17510296 0.046904776 -0.15645765 -0.009819306
-0.06545 -0.06041889 -0.14300147 -0.08572158 -0.14465192 -0.14092803 -0.013500976 0.02997184
00000000: 1874 2a3d 0ca7 77bd 0359 b1bd 2336 3b3d
00000010: 9c76 26bd fdd3 12bd 88e3 78bd 71ed 64be
00000020: e8f1 d9bc 17d2 e03c a0de e6ba 6697 83bd
00000030: 65c8 d4bd c650 44bd 55b6 be3c 0020 8a3d
00000040: a4ae 2abe 6954 1c3d 68ef e2bd 4c28 09bd
00000050: 314e 33be 391f 403d 6f36 20be 28e1 20bc
00000060: a60a 86bd cc79 77bd fa6e 12be cc8e afbd
00000070: a21f 14be 704f 10be 3333 5dbc 8187 f53c

bn3.running_var f4 [32]
0.1439111 0.3878566 0.58180565 0.11187257 0.8744574 0.03202152 0.058513727 0.3655553
0.13121511 0.09038035 0.20580088 0.09195658 0.034359954 0.48253673 0.64066756 0.050626896
1.171144 0.1025191 0.25045595 0.06965543 0.80697256 0.045782704 0.8430845 0.8852321
0.4798413 1.1982644 0.24798912 0.14535025 0.40206602 0.16901428 0.2758653 0.5481886
00000000: 6e5d 133e 2495 c63e 37f1 143f 721d e53d
00000010: 71dc 5f3f ff28 033d 17ac 6f3d 102a bb3e
00000020: 415d 063e 5519 b93d 77bd 523e bb53 bc3d
00000030: 06bd 0c3d 0e0f f73e ca02 243f 265e 4f3d
00000040: 0ce8 953f 89f5 d13d c33b 803e 82a7 8e3d
00000050: c195 4e3f a586 3b3d 63d4 573f 929e 623f
00000060: c2ad f53e ba60 993f dcf0 7d3e b2d6 143e
00000070: 99db cd3e 1412 2d3e 373e 8d3e 1756 0c3f

prelu3.weight f4 [32]
0.11906669 0.1162076 0.21757583 0.23773324 -0.09913348 0.24957268 0.24988225 -0.06725786
0.19518317 0.2272246 0.19633485 0.24791971 0.24875017 -0.15859254 0.07565779 0.21326794
-0.15509519 0.241925 0.16355823 0.2510352 0.0012960748 0.23474815 -0.31501257 0.021281756
0.0038663638 0.05504879 -0.13389443 0.2321193 -0.0168474 0.21306044 0.23270242 0.00310432
00000000: 3dd9 f33d 40fe ed3d 33cc 5e3e 5870 733e
00000010: 7e06 cbbd fb8f 7f3e 22e1 7f3e 7dbe 89bd
00000020: 19de 473e 91ad 683e 010c 493e aade 7d3e
00000030: 5db8 7e3e 1566 22be 79f2 9a3d e962 5a3e
00000040: 46d1 1ebe 30bb 773e cf7b 273e b087 803e
00000050: 0ee1 a93a d261 703e 5449 a1be 1457 ae3c
00000060: d262 7d3b d77a 613d 9f1b 09be afb0 6d3e
00000070: 8f03 8abc 842c 5a3e 8b49 6e3e d971 4b3b

conv4.weight f4 [2, 32, 3, 3]
-0.07664879 0.031753488 0.010636032 -0.073448785 0.07887557 -0.020438474 -0.08009817 0.03385102
0.00477753 -0.045502458 -0.06638098 -0.078841485 -0.05981075 -0.041640747 -0.04288452 -0.042353686
-0.051293254 -0.03833245 0.031150172 -0.029645262 0.24160239 0.048693564 -0.010334463 0.20960617
0.025200488 0.022495836 0.22967656 -0.026029093 -0.0049263197 0.04305275 -0.03146912 0.05378287
0.053575885 0.03960446 0.034902032 -0.00019474165 0.0052411994 0.14388609 0.009146552 0.032526847
0.16518657 0.10807649 0.049823552 0.10181028 0.046716623 -0.0028277829 0.042159915 -0.017186025
0.03892779 -0.043068223 0.02578185 -0.00038120613 -0.009203484 0.022085115 -0.005239755 -0.0052866484
-0.016608639 0.0323165 0.030803004 -0.0139102 0.035680663 -0.031320825 -0.021872064 0.014562251
0.12230749 0.06753695 -0.0099036405 0.07849554 0.06575781 -0.044498604 0.11633413 0.07610279
0.01670152 -0.030437997 -0.046528183 -0.01962592 -0.017791757 0.0069076195 0.020702887 -0.022775566
-0.028426891 0.002452681 0.040166706 0.00040048934 -0.030325549 0.003049538 0.027914207 0.018865094
0.018685495 0.014129286 0.028614065 0.012060727 0.012332024 0.080651246 0.040919445 0.050320853
0.007219408 0.036183454 0.009964095 0.037611824 0.0077042715 -0.020903789 -0.0314492 0.013589608
-0.0045292857 -0.028223459 -0.027047655 -0.05902259 -0.02471121 0.05228077 0.066853225 0.019837929
-0.049626652 0.023549236 0.039226115 0.02940112 -0.03284916 0.039558943 0.10315127 0.15689428
0.0748388 0.099592544 0.16359031 0.07214709 0.11307267 0.16254386 -0.044047344 -0.06651638
-0.038384736 -0.012825962 -0.07744553 -0.056400724 -0.057919662 -0.0773875 0.0049523544 0.018787818
-0.014166157 -0.043608714 -0.04889101 0.02527163 0.03709429 -0.010970437 -0.01603829 -0.009836157
0.08933162 0.089747705 0.019028116 0.09380932 0.14371672 0.072482646 0.07882113 0.1269251
0.03966805 -0.0009594864 -0.0015890129 -0.009268187 -0.0441555 0.037652567 0.07318952 0.04029228
0.05619727 0.024072586 0.004802199 -0.009996346 -0.032419067 0.0039923065 0.0030642634 -0.07383884
0.051908907 -0.040126637 -0.010975746 -0.05407748 -0.013300551 -0.0036864143 0.016893717 -0.051702723
0.018822491 0.033281617 0.03814809 -0.041295756 -0.0386467 -0.075548455 -0.07171225 -0.054489527
-0.026847685 0.04499653 -0.07111011 -0.09665788 -0.07045321 -0.017162599 0.044072837 -0.02436477
0.032200072 -0.053453725 0.061672974 -0.0024135753 0.04264505 -0.030432196 -0.09481705 -0.08826029
-0.071133405 -0.15686506 -0.122827485 -0.035765246 -0.1169048 -0.0909159 0.015696198 -0.041288573
-0.088458374 0.19148234 -0.005868307 0.14499053 0.4487121 -0.08562272 -0.028423714 0.18135336
0.062261567 -0.02521341 -0.01992205 -0.009602086 0.05473353 -0.03425159 0.046515185 0.027319282
-0.023812432 -0.022514582 -0.024774913 -0.13733718 -0.004475464 -0.04577375 -0.13279767 0.011047682
-0.051083054 -0.16097616 -0.019749615 0.05794812 0.19779189 0.0317403 -0.0028153867 0.22233449
-0.024076192 0.012918955 0.2002783 0.039192382 0.026509877 0.061533477 -0.01071898 0.11459717
0.040419377 -0.012660708 0.054995403 0.03627311 0.0009646841 -0.033253796 0.18990937 0.012955882
00000000: 0afa 9cbd f20f 023d c042 2e3c 516c 96bd
00000010: 8489 a13d 966e a7bc 820a a4bd 5ea7 0a3d
00000020: d48c 9c3b c960 3abd c0f2 87bd a577 a1bd
00000030: 1efc 74bd 7d8f 2abd aea7 2fbd 0f7b 2dbd
00000040: e018 52bd 7d02 1dbd a52e ff3c 9fda f2bc
00000050: 9e66 773e e772 473d e151 29bc 00a3 563e
00000060: 4171 ce3c 3049 b83c 5530 6b3e f73a d5bc
00000070: f76c a1bb 1558 303d c4e5 00bd 6d4b 5c3d
00000080: 6372 5b3d 4938 223d 6ff5 0e3d 9033 4cb9
00000090: 5ebe ab3b e056 133e 6bdb 153c df3a 053d
000000a0: ab26 293e 3557 dd3d c813 4c3d e881 d03d
000000b0: ee59 3f3d 5352 39bb e0af 2c3d b5c9 8cbc
000000c0: bf72 1f3d 4e68 30bd 7534 d33c 9fdc c7b9
000000d0: 36ca 16bc d8eb b43c 40b2 abbb 9f3b adbb
000000e0: d70e 88bc 4e5e 043d 9556 fc3c 9ce7 63bc
000000f0: e325 123d 444a 00bd 0b2d b3bc 8296 6e3c
00000100: 597c fa3d d050 8a3d e142 22bc 45c2 a03d
00000110: 08ac 863d 2b44 36bd 9740 ee3d c8db 9b3d
00000120: a0d1 883c 1b59 f9bc 5694 3ebd 8ac6 a0bc
00000130: 05c0 91bc 5059 e23b 1a99 a93c d393 babc
00000140: 83df e8bc 29bd 203b d885 243d c5f8 d139
00000150: 496d f8bc c2da 473b 56ac e43c f88a 9a3c
00000160: 5312 993c 857e 673c 0b68 ea3c 5b9a 453c
00000170: 420c 4a3c 7b2c a53d 269b 273d 3d1d 4e3d
00000180: c990 ec3b 1a35 143d 7240 233c db0e 1a3d
00000190: 1d74 fc3b 6c3e abbc e0d0 00bd f2a6 5e3c
000001a0: 676a 94bb e234 e7bc 0b93 ddbc acc1 71bd
000001b0: 2a6f cabc 5c24 563d 58ea 883d 2783 a23c
000001c0: 5145 4bbd 54ea c03c 90ab 203d 9eda f03c
000001d0: d78c 06bd 8f08 223d f940 d33d e5a8 203e
000001e0: 1645 993d 2df7 cb3d 3884 273e dbc1 933d
000001f0: a592 e73d e671 263e fd6a 34bd bd39 88bd
00000200: 5039 1dbd fc23 52bc c39b 9ebd 7204 67bd
00000210: 2b3d 6dbd 567d 9ebd 5c47 a23b e9e8 993c
00000220: 2b19 68bc 0d9f 32bd f141 48bd 7306 cf3c
00000230: 2ff0 173d 59bd 33bc bb62 83bc d527 21bc
00000240: 7ff3 b63d a5cd b73d dae0 9b3c 1a1f c03d
00000250: 7a2a 133e c871 943d f96c a13d a7f8 013e
00000260: f77a 223d 0b86 7bba 6d46 d0ba 98d9 17bc
00000270: 66dc 34bd 9439 1a3d 63e4 953d 8509 253d
00000280: 1c2f 663d df33 c53c c45b 9d3b b7c7 23bc
00000290: dbc9 04bd e5d1 823b cfd1 483b d138 97bd
000002a0: 6f9e 543d d45b 24bd 9ed3 33bc 5980 5dbd
000002b0: 8eea 59bc c597 71bb b164 8a3c 3cc6 53bd
000002c0: a031 9a3c 4e52 083d 2c41 1c3d bd25 29bd
000002d0: 014c 1ebd 26b9 9abd dfdd 92bd 6930 5fbd
000002e0: adef dbbc 484e 383d 2da2 91bd 91f4 c5bd
000002f0: c649 90bd 9498 8cbc b885 343d a098 c7bc
00000300: 39e4 033d 4bf2 5abd cd9c 7c3d 132d 1ebb
00000310: 93ac 2e3d f14c f9bc 712f c2bd d0c1 b4bd
00000320: 64ae 91bd 3ca1 20be fa8c fbbd 947e 12bd
00000330: c96b efbd 1e32 babd 5095 803c 351e 29bd
00000340: aa29 b5bd f213 443e ed4a c0bb 6678 143e
00000350: 98bd e53e f75a afbd d9d8 e8bc b2b4 393e
00000360: fc05 7f3d 5a8c cebc 9133 a3bc 1152 1dbc
00000370: 4430 603d 654b 0cbd b586 3e3d b0cc df3c
00000380: 4a12 c3bc 8070 b8bc c2f4 cabc 1ea2 0cbe
00000390: eaa6 92bb 417d 3bbd 1dfc 07be 5601 353c
000003a0: 773c 51bd efd6 24be f2c9 a1bc 025b 6d3d
000003b0: f589 4a3e 1e02 023d 5a82 38bb a7ab 633e
000003c0: 6f3b c5bc 06aa 533c c115 4d3e 3188 203d
000003d0: 3e2b d93c 870a 7c3d a99e 2fbc ecb1 ea3d
000003e0: ca8e 253d dc6e 4fbc dc42 613d 1d93 143d
000003f0: dbe2 7c3a 2235 08bd 9a77 423e e844 543c

conv4.bias f4 [2]
-0.052694757 -0.015736278
00000000: 75d6 57bd 5ee9 80bc

bn4.weight f4 [2]
4.713893 4.739353
00000000: 36d8 9640 c8a8 9740

bn4.bias f4 [2]
0.31459624 0.31444776
00000000: c212 a13e 4cff a03e

bn4.running_mean f4 [2]
0.04760557 0.077912375
00000000: 0ffe 423d 8690 9f3d

bn4.running_var f4 [2]
4.123552 4.132251
00000000: 23f4 8340 663b 8440

prelu4.weight f4 [2]
-3.5482523 -3.5410678
00000000: 9116 63c0 dba0 62c0
